FPGA/U96_Integration/weights_final/bias_3.npy (npy, 640 bytes, 1 tensors)

array f4 [128]
00000000: a46f a93c 6473 19bc 13b7 ecbc 4bfb 783c
00000010: 35f9 b63c d8bd d93c b5ea 523c 0adb be3c
00000020: ab87 d03c 53be 32bc 15b5 433c 3e8e 1f3d
00000030: bd8f e43c a462 863b f320 133c b1b6 8c3c
00000040: 7f05 fbbc 4901 093c 9fb6 243c 4142 8dbc
00000050: d5fb f93c 46b5 59bb fa2d 0b3c b55a 80bc
00000060: 24ab 073d c310 e43c 313d b93c 6c21 ffbb
00000070: 3026 84bc fa71 e33c 92fc 973c 16d1 893a
00000080: dac8 4f3d 442e 163c 3932 643c 51f9 0ebb
00000090: 1cff 8bb9 aa16 30bc bb65 adbc 9208 a8bc
000000a0: 27c0 4cbc 2de5 973c e630 e93c 17e0 1a3c
000000b0: 6eda bcbc 2f40 1d3d 5809 4e3c 0197 b1bb
000000c0: 9240 8c3c 8ae7 453c 8e28 183d c4e4 eabb
000000d0: 328a 363c b69c cf3b df8c fe3c cd1c 33bc
000000e0: f324 a6bb b6bc 0abb 51c0 b83c d2fe 5c3a
000000f0: 5e0b 0c3d d84a 383d 1405 8abc 5714 963c
00000100: 9747 38bb c13b 94bc a28d 89bb d6c8 c1bb
00000110: d4cf 25bc 7207 913c c66d a13c 649e 15bc
00000120: f2e3 ccbc d88d 713c 1c15 4e3c 0000 0000
00000130: 4d22 813c 9a30 78ba fa60 bd3c 59ef 36bb
00000140: 2dea babc 39cc 3e3b e327 3dbb 192f 103b
00000150: da89 303c f3b4 e33c dc48 2abc 8014 9abc
00000160: 6012 d6bc fb92 8c3a da82 d13b 6041 283d
00000170: a5b4 8f3c 2c3b 3e3d 7791 0f3c d325 773b
00000180: 35f8 b9bc bad3 093d c1a4 4f3c b54f a23c
00000190: c9a0 e5bc 40f7 b03a e11c ef3c 7512 9a3c
000001a0: d679 e43c 17b0 2b3d 2ddd d7bb a730 61bc
000001b0: 2d5a 023d 9b85 b03b 6f83 323c 2f44 3abc
000001c0: 4f6f 35bc 1b73 bfbc f753 973c b8b3 c83c
000001d0: 72d7 ec3c 54c1 243d 9f90 4c3a 3e37 cc3c
000001e0: c388 a03c 7626 2d3c b97d c03c 5f98 3c3b
000001f0: 875b ee3c 4dc6 9f3c 61a2 9bbc 9514 99ba
0.020683117 -0.00936589 -0.02889589 0.015196632 0.022335628 0.026579782 0.012873341 0.023297805
0.025455317 -0.010909635 0.011945029 0.038954012 0.027900571 0.0041011143 0.008980024 0.017176958
-0.03064227 0.008362123 0.010053306 -0.017243506 0.03051559 -0.003321962 0.008494848 -0.015668252
0.033122197 0.027840024 0.022612186 -0.0077859666 -0.01613149 0.02776431 0.018553052 0.0010514583
0.050728656 0.009166304 0.01392799 -0.0021816085 -0.00026702217 -0.010747591 -0.021166673 -0.0205119
-0.012496985 0.018541897 0.0284657 0.009452841 -0.023053374 0.03839129 0.01257547 -0.0054196124
0.017120633 0.012079129 0.03714805 -0.0071683843 0.011141347 0.00633582 0.031073032 -0.01093216
-0.0050703227 -0.002116961 0.022552641 0.0008430305 0.034190528 0.04499325 -0.016848125 0.018320246
-0.0028118843 -0.0180949 -0.004197792 -0.005913834 -0.010120351 0.017703746 0.019705664 -0.009132002
-0.025011037 0.014743291 0.012578275 0.0 0.015763426 -0.00094676914 0.023117531 -0.0027913658
-0.022816742 0.0029113425 -0.0028862886 0.0022000729 0.010775054 0.027796244 -0.010393348 -0.018808603
-0.026131809 0.0010724956 0.0063937725 0.04107797 0.017542193 0.04644315 0.008762709 0.0037711754
-0.022701362 0.033649184 0.012673558 0.019813398 -0.02803077 0.0013501421 0.029188575 0.01880763
0.027890127 0.04191598 -0.0065876455 -0.01374451 0.03182428 0.0053870208 0.010895594 -0.011368795
-0.011073901 -0.023370316 0.018472655 0.02449976 0.028911326 0.040223435 0.00078035326 0.024928685
0.019596463 0.010568252 0.02349745 0.0028777344 0.029096378 0.019503737 -0.018998327 -0.0011679108
