FPGA/U96_Integration/weights_final/bias_1.npy (npy, 640 bytes, 1 tensors)

array f4 [128]
0.004457519 0.027336525 0.013488748 0.0378417 0.034555227 -0.037860066 0.027313523 0.012539159
0.0345084 0.016534325 0.011455816 -0.016080724 0.017398162 0.013663446 0.031432003 0.020152055
0.04070576 0.008579368 0.0052405596 -0.027547942 0.034542434 0.029485647 0.01611729 -0.0013406973
-0.010373176 0.023761095 0.020787833 0.013730167 0.041986387 0.013051584 0.0053603468 0.02410849
-0.0033729149 0.012164225 0.015010701 -0.03700186 -0.017304817 0.036912516 0.01908464 0.015224473
0.028428894 0.0073357015 0.046937533 0.04046923 -0.0082800435 0.029186344 0.0347914 0.044296432
0.03235234 0.013331938 0.014556006 0.011945467 -0.0064322436 0.016746445 0.033254545 0.03768281
0.0029477668 0.034462716 -0.0012435314 0.014212562 -0.011113526 0.014248677 0.012429733 0.008173305
0.03361543 0.0006095804 0.034923557 0.002597141 0.025799312 0.032908328 -0.024593476 0.00058960577
0.014413092 -0.020457137 -0.033176888 0.011468005 -0.014578186 -0.016275123 0.026970463 0.008876632
0.010761206 0.011973453 0.00057632045 -0.009768197 0.011091372 0.002727494 0.0062985457 0.031459868
-0.00712145 0.0031028707 5.67761e-05 0.029738765 -0.012491664 0.043191947 0.016687281 0.032583155
-0.021446459 0.003501061 0.038212292 0.014972832 -0.0010585347 0.020085452 0.019218316 0.027629612
0.024726126 0.04705036 0.010765653 -0.016651943 -0.0121628605 -0.030944854 0.0029717225 0.006803442
0.0032457034 -0.021374501 0.0007774655 0.046712715 -0.006169135 0.015986383 -0.0010483138 0.034275297
0.0092532225 0.03568319 0.010307172 0.0054290583 0.027454996 0.030669881 0.030258456 0.02023892
00000000: 6110 923b d9f0 df3c e9ff 5c3c e6ff 1a3d
00000010: c889 0d3d 2813 1bbd 9cc0 df3c 0b71 4d3c
00000020: ae58 0d3d fe72 873c 2db1 3b3c b9bb 83bc
00000030: 9786 8e3c a5dc 5f3c d8be 003d ec15 a53c
00000040: 15bb 263d 7a90 0c3c 00b9 ab3b 39ac e1bc
00000050: 5e7c 0d3d e28b f13c 6808 843c 56ba afba
00000060: 41f4 29bc a1a6 c23c 3f4b aa3c 7ff4 603c
00000070: ebf9 2b3d 50d6 553c d9a5 af3b 2b7f c53c
00000080: 1f0c 5dbb 754c 473c 71ef 753c 438f 17bd
00000090: d5c2 8dbc 9431 173d 6457 9c3c 1170 793c
000000a0: b6e3 e83c 5360 f03b 9241 403d 10c3 253d
000000b0: 05a9 07bc 3318 ef3c 6d81 0e3d 2d70 353d
000000c0: e383 043d 336e 5a3c 507c 6e3c ecb6 433c
000000d0: 92c5 d2bb d72f 893c eb35 083d 4a59 1a3d
000000e0: 522f 413b c728 0d3d fdfd a2ba cedb 683c
000000f0: 8215 36bc 4873 693c 14a6 4b3c 53e9 053c
00000100: 55b0 093d 40cc 1f3a 010c 0f3d cc34 2a3b
00000110: 1459 d33c e2ca 063d 4278 c9bc c68f 1a3a
00000120: e424 6c3c ba95 a7bc 7de4 07bd 4de4 3b3c
00000130: 58d9 6ebc 6853 85bc 29f1 dc3c 4b6f 113c
00000140: c54f 303c 4d2c 443c 3614 173a ca0a 20bc
00000150: 96b8 353c c2bf 323b 0864 ce3b 10dc 003d
00000160: 0d5b e9bb 8859 4b3b e022 6e38 b69e f33c
00000170: d6a9 4cbc 0aea 303d c4b3 883c ea75 053d
00000180: 7cb0 afbc 0e72 653b 7e84 1c3d 9c50 753c
00000190: 88be 8aba 3f8a a43c bb6f 9d3c 7f57 e23c
000001a0: 728e ca3c e1b7 403d 6c62 303c a869 88bc
000001b0: bc46 47bc 1080 fdbc 3bc1 423b 68ef de3b
000001c0: deb5 543b 9419 afbc d4ce 4b3a d555 3f3d
000001d0: 7526 cabb e0f5 823c 9367 89ba 4164 0c3d
000001e0: d49a 173c 8928 123d 6adf 283c 3ee6 b13b
000001f0: 4de9 e03c 673f fb3c 95e0 f73c 17cc a53c
