FPGA/U96_Integration/weights_final/bias_0.npy (npy, 640 bytes, 1 tensors)

array f4 [128]
00000000: b9d5 9fbc 3dda 1e3d 0779 483b e14f c7bc
00000010: 90cf 6c3b 7419 0bbd 4346 a6bc 5c38 7dbb
00000020: 8b2a 143d a924 2b3d d1ac a83c a416 e73c
00000030: 9891 9b3c bcda d9ba 80fd 6ebc 147d 0f3d
00000040: 2fcc 8b3d 4270 ef3c 5678 c93c 7022 c23c
00000050: 0e64 0a3d 02aa e33c 6fac 653d cfe7 08bd
00000060: 18e3 513c 7186 e23a f3c5 af3c fca6 bfbb
00000070: f9c8 103d afb7 c53c dc88 0ebd 60f9 273c
00000080: 8175 0b3c 06b5 443d f615 d23c 6cb8 8bbc
00000090: be82 3a3d 6afb 7ebb feaa 043d 3158 16bd
000000a0: d187 ce3c 5c61 ab3b 08e0 ec3c 8979 603c
000000b0: ee8e 1e3d 849e 2a3d a551 2c3d c007 9a3b
000000c0: 738e 553d 42e5 dc3b d1ef 043d 5c90 973b
000000d0: c83c 973d 87b1 eb3c ebd5 113b 3f8e 6a3d
000000e0: df7a 92bc 5ad7 64bc 53db 1c3d 8d09 653c
000000f0: 1e3c 663d 71aa 7ebc 15fd baba 0610 583b
00000100: 4446 bf3d c8fa 283b 0eb0 1a3d ece7 423b
00000110: 2eb0 a33c 0df9 a43c cb4b b7ba 3a7b f1bb
00000120: 2bc0 333d fb10 883c d703 843d ce6e 023d
00000130: dcd3 293d 8e82 523b 7c5a 113d d2d3 243d
00000140: fc32 f93c 67c4 773c 1da5 3e3b 90da f93c
00000150: e6d0 3b3d 0138 2b3d dc98 243d 8a72 a23b
00000160: e433 8d3c 010e 4abc 3a9a a13c 1a8a a23b
00000170: 1d62 853c 6bb2 423d d049 243d 7842 8b3d
00000180: 184f f83c 1ff7 433d 9ff2 ddbc c2ce 763d
00000190: 1561 8e3d 1ae2 903b 033d 743c 709c f9bc
000001a0: ac1e 29bc de1a 383c 45d4 20bc 4c34 713c
000001b0: f721 523d 5942 183d ae7c 90bc 2a48 593c
000001c0: ab4f d5bb 1e32 fc3c 5cd4 84bd a245 87bc
000001d0: c32f 443d e7a1 623c 88f9 233d 0cf2 6cbb
000001e0: 48a0 f23c 123b 933c ae9b 6b3c 5be0 0e3c
000001f0: 7f30 7a3d 21c6 da3c 3e08 453d 435d 833d
-0.01951109 0.038782347 0.0030589716 -0.024330081 0.003613446 -0.03395982 -0.020297175 -0.003863833
0.036173385 0.04178301 0.020590218 0.028209038 0.018990323 -0.0016620974 -0.014586806 0.035031393
0.06826054 0.029228333 0.024593513 0.023698062 0.033786826 0.027791027 0.05607265 -0.033424195
0.012810491 0.0017282498 0.021456694 -0.0058487635 0.035347912 0.024135439 -0.034798488 0.010252327
0.008511902 0.0480242 0.025645237 -0.017055713 0.04553484 -0.0038907179 0.032389633 -0.0367052
0.025211247 0.005230112 0.02891542 0.013700851 0.038710527 0.04165508 0.04207005 0.004700631
0.052137803 0.006741197 0.03245527 0.0046253633 0.0738464 0.028771175 0.002225275 0.057264563
-0.017880855 -0.013967359 0.0382951 0.013979328 0.056209676 -0.015543566 -0.0014266098 0.0032968535
0.09339574 0.0025784243 0.037765555 0.0029740287 0.01998147 0.020138288 -0.001398438 -0.007369426
0.043884438 0.01660966 0.06446045 0.031843953 0.04146181 0.0032121274 0.035486683 0.04024107
0.030419819 0.01512251 0.0029090114 0.030499727 0.045853518 0.041801456 0.04018484 0.004957502
0.017236657 -0.01233244 0.019726861 0.0049603106 0.016282136 0.047533434 0.040109456 0.06799787
0.030311152 0.047843095 -0.02709323 0.060255773 0.06952111 0.0044214847 0.014907124 -0.030470103
-0.010322254 0.011236874 -0.009816234 0.014721941 0.051301923 0.03717265 -0.017637577 0.013261834
-0.0065097413 0.030785616 -0.06485817 -0.016512696 0.04789711 0.013832546 0.040032893 -0.0036155013
0.029617444 0.017972503 0.014380379 0.008720483 0.061081406 0.026705803 0.048103563 0.06414273
