FPGA/U96_Integration/weights_final/bias_2.npy (npy, 640 bytes, 1 tensors)

array f4 [128]
00000000: 8b8a 043d bef9 5a3d 59b4 20bc d7f3 2abc
00000010: 7282 0a3d 3f29 a73c 4da2 b93c 63cd 283d
00000020: 35ab 32bb 5304 b23c fa03 543c 6b7f 813c
00000030: 29cc cf3b c7d2 1a3c fc55 463c 458e d3bc
00000040: dfbf ddba d154 973c 742e ac3c ae40 e93c
00000050: f654 0a3c a3f8 1a3d 8a9e 1b3c b708 73bb
00000060: 8fa7 73bb 845b 6abc ff6b 7b3b 0f5e ba3c
00000070: 1f3d d23c 63b2 f03c 45d6 923c 9f4f c4bc
00000080: d043 9abc 7561 193d e4a1 8e3c 1d28 0b3d
00000090: 38a6 4bbb e543 483c b24d 9b3c 1800 4a3c
000000a0: befd f33c d4c7 f43c ea85 353d 92ea 09bd
000000b0: a1ac 1f3c 51e5 b5bb 637e 743b f53c b13c
000000c0: fdbc 223d a246 1fbc e385 5d3c 9f20 1b3d
000000d0: d734 02bc 6831 4b3b 2092 5ebc 2671 823b
000000e0: 1e56 df3c 9660 883c 607e 863c 42b6 1e3b
000000f0: f2ec 41bb 7dcb c13c bdb7 973c 0880 1c3d
00000100: 4aa6 833c da90 a03c 7ddb ab3b 6530 a5bb
00000110: cda5 c3bb 1be5 693c 05e2 983c 99c9 cf3c
00000120: 33bd b63c 7f68 2f3c e081 06bc 2aad 1bba
00000130: 835f f13c 8427 75bc 1421 ee3c c855 0cbc
00000140: 665d bcbb e9b7 77bc b993 d23c 1e74 8dbc
00000150: 1940 c23c 9997 873b df6a 903c ccc3 f03b
00000160: 51c6 293c f469 09bc 08ee 5dbc 5e3b 8ebc
00000170: eed8 d43b 28dd 123d 02d2 d3bb b961 533b
00000180: 048d ffbc d2ae 39bc d49c 1abb 5250 47bb
00000190: ecd2 0f3b 507c 393c 42a8 803c 2260 813c
000001a0: e6c4 2c3c 14cd 8a38 e508 9c3c 7e48 323c
000001b0: 50f5 473d e926 a8b8 dc83 453d 213a fa3c
000001c0: 6893 cc3c 586d 1ebc d269 d5bb 6f0f cc3c
000001d0: 20fb 31bc 92df 0b3d e47a 113b bccf 773c
000001e0: 97db 333d 89cb 203d fa27 60bc 3c38 363d
000001f0: 5744 85bc cad6 553d 43a5 adbb 18c2 cd3c
0.032358687 0.05346083 -0.009808623 -0.0104341125 0.03381581 0.02040541 0.022660399 0.041211497
-0.0027262692 0.021730578 0.012940401 0.015807828 0.0063414765 0.009449667 0.012105461 -0.025824675
-0.0016918144 0.01847306 0.021018244 0.028473224 0.008443108 0.037834775 0.009498248 -0.0037084052
-0.003717873 -0.014304046 0.0038363931 0.022749929 0.02566391 0.029381936 0.017924437 -0.023963748
-0.018831164 0.037446458 0.01741118 0.033973802 -0.0031074416 0.012223219 0.018957946 0.012329124
0.02978408 0.029880442 0.044317164 -0.03367097 0.009745748 -0.0055510183 0.0037306778 0.021635512
0.039731015 -0.00972143 0.013520691 0.037872907 -0.007947168 0.003100479 -0.013584644 0.0039807735
0.027262744 0.016647618 0.016417682 0.002421752 -0.0029590693 0.023656601 0.01852023 0.038208038
0.016070504 0.01960032 0.005244671 -0.0050411695 -0.0059706927 0.014275814 0.018662462 0.025364684
0.022307014 0.010706066 -0.008209676 -0.0005938584 0.029464489 -0.014963035 0.029068507 -0.008565374
-0.0057484386 -0.015119531 0.025705205 -0.017267283 0.023712205 0.004137945 0.017629085 0.0073475596
0.010362224 -0.008387078 -0.013545521 -0.017362293 0.0064955866 0.035855442 -0.006464244 0.0032254292
-0.031195171 -0.011333184 -0.0023592012 -0.0030412865 0.0021945788 0.011321142 0.015705232 0.01579291
0.010544991 6.6185516e-05 0.01904721 0.010881541 0.048817933 -8.018112e-05 0.048221454 0.030545296
0.024972633 -0.009669624 -0.006512859 0.024909703 -0.0108630955 0.03414876 0.0022198493 0.015125211
0.04391059 0.039256606 -0.013681406 0.044487223 -0.016267939 0.052206792 -0.0052992417 0.025116965
