FPGA/U96_Integration/weights_final/weight_3.npy (npy, 65664 bytes, 1 tensors)

array f4 [128, 128]
00000000: b31e 113d 56dc 3b3e 64e2 f33d d6c6 9a3c
00000010: 90cc 723c 565c 88bd b5fd 303e b915 613e
00000020: 7f88 1ebd 07fd 033e e54b 6fbe 8d5a a53d
00000030: 293a bcbd abfd b2bb 09ed f63d 0b96 13be
00000040: d9f9 01bc 81b7 7cbd 3f5d 9bbd b00a 78bd
00000050: c66f 2c3e a7e2 15be 794e f2ba b473 0fbe
00000060: 39b6 d2bd df52 b43d ce6a 92bc dbba cfbd
00000070: 2a63 b9bd a9cb 1abe c2c7 4d3e cc0c c6bd
00000080: 1de8 74bc 851d 023e 5121 d43b 18dd 15be
00000090: f1e7 e2bd 6856 083d 368b 103e 9773 36be
000000a0: 5318 0e3d 696c 383d cca1 393e dedf 703d
000000b0: fcf7 7cbd a9f6 48bc 3483 183d 5159 5ebd
000000c0: e797 023c 5393 8ebd beb6 823c fb2a 9abd
000000d0: 625d 943d f59a 82bd 152b 6e3d ca1b 25be
000000e0: 0502 c43d 92f3 323d d99e e3bd b530 04bd
000000f0: d0a5 e03d afe1 5e3d 9123 d1bd 192a 3c3e
00000100: 4f63 f83d 5256 fb3d 4bc5 c43c e056 af3c
00000110: 06e0 073e 623d dcbd c28b 5ebb 1cf1 a3bd
00000120: e2a2 b73c 7ad9 2cbe 332b 42bd 726d 85bd
00000130: 0c7e d73d cffb bc3d 7680 c43d e2b5 f13d
00000140: 1168 d73d e014 59bd 1cfb 01be 90f2 8fbd
00000150: 72d8 a0bc 8d66 f3bd bcd5 6fbc 45a9 11be
00000160: 18e6 cabd f28e f7bd bfc8 14be 1c1b 03bd
00000170: a1a0 353d 77c3 a4bb 1828 3c3c d2b6 fbbd
00000180: 61e2 b53a 8413 f03b bb2a 0a3e 06f8 383d
00000190: 07a8 0cbe 3920 c93c f761 1f3e 6eb4 dd3c
000001a0: b8fb ccbd 806b 353e 3065 bbbd 5d55 fe3c
000001b0: e21e 143e 78d7 c3bd b2c6 9dbd 18e0 b03c
000001c0: 9722 203e 0fa5 29be 20c3 123e ae23 eb3d
000001d0: 464a 02bc beec 473b 6d72 34bb 9b0e 003e
000001e0: a81b 573e 1517 203e ba3d 673d 4392 10bc
000001f0: 0e38 aebd eac0 0dbd b3be 813c f379 813d
00000200: f2e2 573d f81c b53d f920 b8bd 82ae 833c
00000210: 6bd4 1fbe cf74 a33d 888c 31be 0499 f9bd
00000220: c5ab ccbb 8f49 a43d a7ce 1f3e 6005 683c
00000230: da7a c5bd 9f9a 773d f75f cd3d 2cf8 e33c
00000240: 4430 03be 23ae a83d d4be 453e 2b4f 873d
00000250: 7861 37be 04a2 2c3d 5d88 d2bc 5550 4fbd
00000260: bcbe 0dbe 35ce e2bd 9b0c 0c3e 88b3 02be
00000270: 438b 603e 6efa 763e 5b06 f33c b3b8 fd3c
00000280: 05ba 1a3d 2cdd c33d 5ef1 c93d 02fe 933b
00000290: bb17 cdbc 7503 84bd c323 36be 7322 f7bd
000002a0: 2780 003e 2730 6cbd 40be a43d ac0b 503e
000002b0: ad28 99bd 2191 11be 3df0 003e cb07 0e3e
000002c0: b67f 0cbe 82c6 973d df0a 14be 78c4 923d
000002d0: a57e 0d3e 767c fbbd 8541 8bbd 0d0c fabd
000002e0: 50a0 debc 3b3f 5b3e 617b e93d 38b0 ae3d
000002f0: 235e d1bb 54a1 e5bd de55 0b3e e6a9 37bd
00000300: 2f7a 9cbd 671d ac3b 0fe9 00bc e7dd e13c
00000310: 30ba cdbd 9631 6cbd 6c5f 5a3c 49b2 fcbc
00000320: d1ac 993c 3686 5b3e 19bc b9bc 3f0b 1bbe
00000330: 3e5b a53d 14b5 d3bd 9f0c c13d d90e 0fbe
00000340: 5208 c5bd f156 8c3d f28d c4bd 8ab9 eb3c
00000350: 6d5d 223d aad9 573c 30eb 9bbd fe31 31bd
00000360: c062 8abc 71e8 24be 4c2c df3c 9c18 79bc
00000370: 05c0 06bd eb82 bf3d 95d6 c9bc b862 233e
00000380: 404f e83c 4db1 4cbd f26b 47bd c538 04bd
00000390: 0f83 c8bd 5703 b83d 0015 5e3a b285 e63d
000003a0: 829a 6cbc 0f54 aebd 9204 24be 457c a3bd
000003b0: fad7 e1bd adaa 2a3d a78c 0bbe 4afc 80bd
000003c0: dc15 563d 1a3d c03d a89d 3bbd 7b58 033e
000003d0: 515c b6bb 1105 8ebd 3373 a1bc 7a14 623d
000003e0: 775c 193e d4f8 ecba f8b5 3bbd c976 283d
000003f0: 69f7 253d 4f8a ff3d 9b07 15bd 4d63 35be
0.035429668 0.1834577 0.11908415 0.01889364 0.014819279 -0.06658237 0.17284282 0.21980943
-0.03870439 0.12889491 -0.23368795 0.08073912 -0.09190781 -0.0054623685 0.120569296 -0.14412706
-0.0079331035 -0.06169844 -0.07586145 -0.060557067 0.16839513 -0.14637242 -0.0018486521 -0.14008981
-0.102886625 0.08804869 -0.017873194 -0.10143062 -0.09052117 -0.15116753 0.20095733 -0.096704096
-0.014947918 0.12706573 0.006473698 -0.14635122 -0.110793956 0.03328553 0.14115605 -0.17817532
0.034691166 0.045025263 0.18128127 0.058807246 -0.061759934 -0.01226584 0.0372345 -0.054284398
0.007970787 -0.069616936 0.015956279 -0.07527729 0.07244374 -0.06377212 0.058146555 -0.16123882
0.09570698 0.043689318 -0.11114282 -0.032273013 0.10969126 0.054414447 -0.10211862 0.18375434
0.121283166 0.12272324 0.024019858 0.02140373 0.13269052 -0.10753895 -0.0033957814 -0.08004972
0.022416536 -0.16879836 -0.04740448 -0.06515016 0.105220884 0.09227716 0.095948145 0.118022695
0.10517896 -0.052998424 -0.12693447 -0.07028687 -0.01963446 -0.118847944 -0.014638361 -0.14224727
-0.09907168 -0.120878115 -0.14529704 -0.032008275 0.04434264 -0.005028184 0.0114841685 -0.122907296
0.001387667 0.007326545 0.13492863 0.04515841 -0.13735972 0.024551498 0.15564714 0.027063575
-0.10008949 0.17716789 -0.09150159 0.031046564 0.14464906 -0.09562582 -0.07703914 0.021591231
0.15638195 -0.16566871 0.14332247 0.11481415 -0.0079522785 0.00305061 -0.0027534023 0.12505572
0.21006644 0.15633805 0.05645535 -0.008823934 -0.08506785 -0.034607805 0.015838003 0.06322088
0.052706666 0.08843416 -0.08990664 0.016074423 -0.15608375 0.07981264 -0.17338765 -0.121873885
-0.0062460625 0.08021843 0.15606175 0.014161438 -0.09642573 0.060450193 0.100280695 0.027828299
-0.1281138 0.08236339 0.19311076 0.06606897 -0.17908275 0.042146698 -0.025699789 -0.05061372
-0.1384229 -0.11074487 0.13676684 -0.12763798 0.21928124 0.24118969 0.029666116 0.03097186
0.03777506 0.095636696 0.0986049 0.004516364 -0.02503573 -0.06445972 -0.1778708 -0.120671175
0.12548886 -0.05766311 0.080441 0.20316952 -0.074784614 -0.14215519 0.12591644 0.1387016
-0.13720593 0.07410909 -0.14457272 0.0716638 0.13817842 -0.122795984 -0.06799606 -0.1220933
-0.027176052 0.2141084 0.11400486 0.08529705 -0.006389396 -0.112124115 0.13606974 -0.044839762
-0.07640492 0.0052525285 -0.0078680655 0.027571632 -0.10045278 -0.057664476 0.013328414 -0.030846732
0.018759163 0.21437916 -0.0226727 -0.15141009 0.08074044 -0.10337272 0.094262354 -0.13970508
-0.096207276 0.0685252 -0.095973864 0.028774995 0.03963988 0.013174454 -0.07613218 -0.043260567
-0.01689279 -0.16104294 0.027242802 -0.015203621 -0.032897968 0.093511425 -0.024638453 0.15955627
0.028358102 -0.049973775 -0.04868693 -0.032280702 -0.097906224 0.08985012 0.0008471757 0.11255969
-0.014441134 -0.08512127 -0.16017368 -0.07982687 -0.110275224 0.041666675 -0.13627873 -0.0629812
0.05226694 0.09386654 -0.04580465 0.12826721 -0.005565204 -0.0693456 -0.019708252 0.05519531
0.14976679 -0.0018079528 -0.045827836 0.041128907 0.04051915 0.12477552 -0.036384206 -0.17713661
