FPGA/U96_Integration/weights_final/weight_2.npy (npy, 65664 bytes, 1 tensors)

array f4 [128, 128]
0.15015551 -0.079222605 0.038126986 -0.07247778 -0.03489022 -0.11815277 -0.1341449 -0.09514476
-0.13979279 -0.025266424 0.13711853 0.1401203 0.064772196 0.046542645 0.11669758 0.060557373
-0.02113379 0.08138946 0.14787072 -0.23676756 0.078152955 0.20977141 0.06616245 -0.06203737
0.2773773 -0.04832759 0.14579937 -0.09465685 -0.052402273 -0.05968535 0.042042315 0.07596182
0.10066342 -0.16663395 -0.11425476 -0.17778745 -0.21206482 0.028592253 0.04911681 0.08825692
-0.040118184 0.09219324 0.05639357 0.18125755 0.058001272 -0.12633407 0.057241254 0.017597983
0.024150785 0.13828322 -0.021914411 0.06514694 0.04536378 -0.0016549112 -0.07337427 0.19628459
-0.03811213 0.12845953 -0.07864355 0.057882924 0.15319093 -0.054710075 -0.122234285 -0.17674792
-0.041965943 0.14457293 0.043050814 0.16747385 -0.069590315 -0.02461478 0.083798006 0.13113211
-0.0135822985 0.031293802 -0.10072715 -0.09423161 0.0704892 -0.07387561 -0.0073177023 -0.1439362
0.050601006 0.0045131543 -0.11449718 -0.14736572 -0.08463983 0.07371006 0.04215357 0.15808906
0.079820745 0.16989152 0.0705192 0.2053533 0.07359371 -0.011948702 -0.079142325 -0.11421769
0.22778559 0.076339684 -0.006361584 0.107226856 -0.035088032 0.07865397 -0.096701704 0.18017706
-0.13777772 0.052865736 0.07102872 -0.13239743 0.108595386 -0.04788146 0.046647444 -0.0473463
0.111365356 0.04995352 0.15119901 0.034083918 0.08907027 0.032407396 0.18906613 -0.15854417
-0.13679352 -0.0651511 0.024580037 -0.15431242 0.018599348 -0.015414535 0.042739518 -0.21752007
-0.04087874 -0.09976264 0.09127668 -0.0025123416 -0.00914676 0.15355363 0.064726576 -0.03710772
-0.0042147776 -0.00081171736 -0.13987519 -0.016759938 -0.041967884 -0.1878698 0.14021334 -0.13609545
-0.12643114 -0.13499545 0.004729598 -0.21087156 0.1162939 0.03883437 -0.013204371 0.0871596
-0.022559049 -0.07600999 -0.13848178 -0.13256043 0.046299726 0.11957226 0.15175249 0.19096309
-0.11470641 -0.008358128 -0.012756303 -0.1354555 -0.005039521 0.14543931 -0.15776555 -0.008653613
-0.033148456 0.1198319 0.15435016 0.15762988 0.09760496 0.045132414 0.17216642 -0.070451915
0.052249167 -0.011181448 0.14766656 -0.0574982 0.14148265 -0.17782545 -0.11908971 0.04295351
-0.18279164 -0.0022180306 0.056419067 -0.03017045 -0.034404654 0.13441442 0.1511236 -0.120348364
-0.11892318 -0.123154 0.07540683 -0.015217025 -0.023014277 -0.06892379 -0.025547035 0.1730965
0.06933913 -0.14625181 0.18021376 -0.17403348 0.11261993 -0.105131306 -0.0041592964 -0.03747802
0.106973395 0.15112218 -0.07399422 0.076925516 -0.026912829 -0.1238222 0.029315203 0.12570544
-0.064628 -0.0015073341 -0.05551051 0.09914281 -0.030829191 -0.04564096 -0.09945062 -0.09161807
0.05401889 0.0780229 0.094699666 0.08659471 0.10913964 -0.06880187 0.036567606 -0.111609496
-0.066255815 0.055836547 0.1845366 -0.012799944 -0.011911947 0.08647234 -0.13445893 0.10751791
0.15513866 -0.10493046 0.110973194 0.029178847 0.17563748 0.14765634 -0.09063661 0.12662658
-0.041404173 -0.0588513 -0.10243185 0.1383035 -0.006570428 -0.079487585 0.07474029 0.00027390907
00000000: 5ec2 193e 763f a2bd 0b2b 1c3d 3b6f 94bd
00000010: 0ce9 0ebd 14fa f1bd 485d 09be 42db c2bd
00000020: d725 0fbe 88fb cebc cd68 0c3e b27b 0f3e
00000030: 49a7 843d 80a3 3e3d 24ff ee3d 020b 783d
00000040: c520 adbc 84af a63d 6c6b 173e 3273 72be
00000050: a80e a03d 51ce 563e 2e80 873d e61a 7ebd
00000060: 6604 8e3e 27f3 45bd 6e4c 153e 73db c1bd
00000070: c4a3 56bd a078 74bd 9034 2c3d df91 9b3d
00000080: a028 ce3d 17a2 2abe 66fe e9bd ea0d 36be
00000090: 8527 59be 4d3a ea3c b52e 493d 0bc0 b43d
000000a0: f752 24bd cfcf bc3d f2fc 663d 949b 393e
000000b0: be92 6d3d b85d 01be ce75 6a3d a529 903c
000000c0: ded7 c53c 1e9a 0d3e da85 b3bc c26b 853d
000000d0: 5fcf 393d 9be9 d8ba 4045 96bd d4fe 483e
000000e0: 771b 1cbd e58a 033e df0f a1bd a516 6d3d
000000f0: 15de 1c3e ac17 60bd f855 fabd 68fd 34be
00000100: 7be4 2bbd ed0a 143e 0d56 303d 447e 2b3e
00000110: 5e85 8ebd efa4 c9bc 4a9e ab3d 7f47 063e
00000120: 4a88 5ebc ee2d 003d 094a cebd 81fc c0bd
00000130: a45c 903d 194c 97bd 56c9 efbb 0364 13be
00000140: 0043 4f3d 15e3 933b 7f7d eabd 0ae7 16be
00000150: a657 adbd 4df5 963d 39a9 2c3d 19e2 213e
00000160: 0f79 a33d 0bf8 2d3e 5f6c 903d 2348 523e
00000170: 4db8 963d 7dc4 43bc 5f15 a2bd f7ea e9bd
00000180: a040 693e fb57 9c3d d674 d0bb c199 db3d
00000190: 78b8 0fbd 5515 a13d 8b0b c6bd 5680 383e
000001a0: 9a15 0dbe be89 583d 8177 913d 3193 07be
000001b0: 4267 de3d 5a1f 44bd 6411 3f3d 32ee 41bd
000001c0: 8513 e43d 109c 4c3d ead3 1a3e 949b 0b3d
000001d0: 796a b63d 9ebd 043d 8d9a 413e 6759 22be
000001e0: 9a13 0cbe f16d 85bd 135c c93c 1304 1ebe
000001f0: a95d 983c 3f8d 7cbc a20f 2f3d 95bd 5ebe
00000200: 7770 27bd 5b50 ccbd 45ef ba3d 19a6 24bb
00000210: 4bdc 15bc 2a3d 1d3e 5e8f 843d 44fe 17bd
00000220: 1e1c 8abb 6ec9 54ba 713b 0fbe 234c 89bc
00000230: 84e6 2bbd f160 40be 1694 0f3e 9b5c 0bbe
00000240: 2a77 01be 3f3c 0abe befa 9a3b b7ee 57be
00000250: 7f2b ee3d ca10 1f3d 2557 58bc bb80 b23d
00000260: c1cd b8bc 20ab 9bbd 2bce 0dbe ecbd 07be
00000270: c8a4 3d3d 4de2 f43d 0165 1b3e d48b 433e
00000280: 32eb eabd 88f0 08bc d0ff 50bc d9b4 0abe
00000290: 9122 a5bb 0bee 143e 4b8d 21be e2c7 0dbc
000002a0: adc6 07bd 6d6a f53d f80d 1e3e ba69 213e
000002b0: 1ce5 c73d c4dc 383d 654c 303e 1849 90bd
000002c0: 3903 563d 6432 37bc e735 173e 3c83 6bbd
000002d0: d4e0 103e e017 36be 4ee5 f3bd 05f0 2f3d
000002e0: bb2d 3bbe 615c 11bb ae17 673d 0528 f7bc
000002f0: e5eb 0cbd efa3 093e 25c0 1a3e 3479 f6bd
00000300: ff8d f3bd 2a38 fcbd e56e 9a3d d450 79bc
00000310: 7088 bcbc ea27 8dbd 0448 d1bc 3540 313e
00000320: ac01 8e3d 09c3 15be f589 383e d535 32be
00000330: 47a5 e63d 154f d7bd b54a 88bb 8d82 19bd
00000340: de14 db3d c6bf 1a3e 488a 97bd 208b 9d3d
00000350: 4b78 dcbc 7e96 fdbd 7026 f03c edb8 003e
00000360: af5b 84bd bd91 c5ba fd5e 63bd 630b cb3d
00000370: 808d fcbc 04f2 3abd c4ac cbbd 41a2 bbbd
00000380: e942 5d3d 78ca 9f3d e6f1 c13d 9158 b13d
00000390: 9b84 df3d ffe7 8cbd eac7 153d 8593 e4bd
000003a0: 21b1 87bd ddb4 643d 2af7 3c3e dbb6 51bc
000003b0: 542a 43bc 6918 b13d 9aaf 09be 5a32 dc3d
000003c0: abdc 1e3e c8e5 d6bd ea45 e33d 7a08 ef3c
000003d0: 50da 333e 3933 173e b09f b9bd 66aa 013e
000003e0: 6c97 29bd 100e 71bd cac7 d1bd 6f9f 0d3e
000003f0: bf4c d7bb 63ca a2bd 7011 993d 749b 8f39
