FPGA/U96_Integration/weights_final/weight_1.npy (npy, 65664 bytes, 1 tensors)

array f4 [128, 128]
000000 8b fd fa bd f0 ab f5 bc 5b 3a c1 bb 09 2c 49 3d
       -0.12255391 -0.029989213 -0.005896849 0.04911426
000010 08 79 95 bd 3e ea 77 3d 26 ff a7 bd 39 d0 0f 3e
       -0.072984755 0.060526125 -0.082029626 0.14044274
000020 37 3a 87 3c 16 58 05 3e 25 3b 75 3d 96 76 c8 3d
       0.016507251 0.13021883 0.059870858 0.097882435
000030 7b 07 2f bd 28 dc cd 3d 8c ed ba 3d d3 80 f4 3d
       -0.042731743 0.10051757 0.0912734 0.11938634
000040 e2 0f 05 3e 97 58 2b bd 03 bc f3 3d b2 58 74 3d
       0.1299434 -0.041832533 0.11901095 0.0596549
000050 ce e2 03 be be 6e 31 3e 54 66 10 bd 7f af d8 3d
       -0.12879488 0.17327401 -0.035253838 0.10580348
000060 cf ba f3 3d 48 f7 21 3e 54 27 62 3d 73 62 e6 3c
       0.11900865 0.15816987 0.055213287 0.028123116
000070 08 a1 90 3d 7f 42 4f 3e 27 04 c2 bd 49 68 bb 3d
       0.07061964 0.2024021 -0.09473448 0.0915075
000080 09 90 c1 3c 8c e5 1a be 87 c4 1f 3c 87 11 1e 3e
       0.023628252 -0.15126628 0.009751446 0.15436374
000090 c2 7f 07 3d 10 08 e2 bd 66 5a 00 3d e5 67 1a 3d
       0.033080824 -0.11036694 0.03133621 0.037696738
0000a0 9b ec 40 3e f1 69 14 3d 13 e2 ff bd 7e 0d a8 bd
       0.18840258 0.036233846 -0.12494292 -0.082056984
0000b0 e3 ff ce 3c 52 56 a6 3c 4d 19 e3 3d 79 9a 1a bd
       0.0252685 0.020304833 0.1108881 -0.037744973
0000c0 8e bc 27 bd 3f 9e c7 3d 80 e2 89 bd 90 5d f0 3d
       -0.040951304 0.0974698 -0.067326546 0.11736596
0000d0 5d 1b b5 bd a0 48 13 3e 79 96 55 3d 07 39 8a bb
       -0.0884311 0.14383173 0.052145455 -0.004218224
0000e0 18 cf ac 3d fc 57 3d bd 58 ec 67 3c 38 8b eb bd
       0.084379375 -0.046226487 0.01415547 -0.11501163
0000f0 f0 8d 2d bd 21 53 28 3c 6a 3a 05 3e 74 a6 f3 bc
       -0.04237169 0.010273726 0.13010564 -0.029742457
000100 6e 3d 20 3d d3 4b b8 3c 6b e6 95 3c c9 f2 69 3d
       0.039121084 0.022497093 0.018298348 0.057116304
000110 12 bb 02 3e b2 23 8b 3d 91 e2 03 be 86 50 11 3e
       0.12766674 0.06793918 -0.12879397 0.14190874
000120 40 66 0a be 42 ad 07 3e 50 15 19 3e 3e c1 29 3e
       -0.13515568 0.13249686 0.14949536 0.16577622
000130 67 83 0b be cc 46 3c bd f4 57 14 be 97 da 13 3c
       -0.13624345 -0.045965955 -0.14486676 0.009024284
000140 84 88 4b bb 1b e2 12 3d f0 be 8e bd 13 20 32 bd
       -0.0031056711 0.035860162 -0.06970012 -0.04348762
000150 3f a3 eb bc 2d e0 3b 3d 50 e1 cb 3c 19 b5 dd bd
       -0.028764365 0.045868088 0.02488771 -0.10825557
000160 e2 05 b0 bd dc a5 c2 bb 07 d0 4d 3e c6 1d 4e 3c
       -0.08594872 -0.005940182 0.20098887 0.012580341
000170 d0 36 bb 3d cd 5d 38 bd 1b ad ce 3d 7e 0e 0b 3d
       0.09141314 -0.04501133 0.10091611 0.033949368
000180 32 28 1e 3d 92 be 22 be a4 ca 04 3d 78 b9 14 be
       0.038612552 -0.1589301 0.032419816 -0.14523876
000190 e2 2f 03 be e6 fd 63 3d 5d 20 dd bd 2f 08 83 3d
       -0.12811235 0.05566206 -0.107971884 0.06398045
0001a0 f7 0b 04 be 5f 1d 05 3e b6 bd 9f bc 6f 49 c6 3d
       -0.12895189 0.12999485 -0.01949964 0.09681975
0001b0 56 61 02 3d 62 f9 eb bd 6a 8d f2 bd 34 47 9e 3d
       0.031831108 -0.11522175 -0.11843379 0.07728425
0001c0 86 97 02 3d b8 ee 4d bb 8d 48 df bb cf 3e 6e bd
       0.031882785 -0.0031422805 -0.0068140686 -0.058165368
0001d0 7b ea ba bd 9b 67 6c bb 23 52 46 bc f7 43 8a 3d
       -0.09126755 -0.0036072496 -0.012104544 0.067512445
0001e0 cb b5 11 be ce 47 bc bd bb 24 fd bd d1 07 a0 bd
       -0.14229505 -0.09193383 -0.123605214 -0.07813991
0001f0 d3 54 f6 3c f9 c4 75 bd 55 f7 fe 3c ac 5d fe 3d
       0.030069744 -0.0600023 0.031123796 0.1242021
000200 ee e1 72 3d 83 8e a0 bc ca 33 81 3d cc 40 05 3e
       0.059297495 -0.019599205 0.06308706 0.13013
000210 90 c5 32 bd 5a 71 97 3d b3 e4 02 3e bb 7f 9c 3d
       -0.04364544 0.07394667 0.12782554 0.0764155
000220 71 fa 22 bd 43 d0 d0 bc 4e 2f e8 3d 95 90 31 bb
       -0.03978962 -0.025489932 0.11337148 -0.0027094234
000230 eb cf 22 bd a5 3d 86 3d 2f 19 e2 3d cf 98 10 3e
       -0.039749067 0.065547265 0.1103996 0.14120792
000240 cb cc 08 3d 91 82 e2 3d db 06 1b be 58 5e c6 bd
       0.03339843 0.1106006 -0.15139334 -0.096859634
000250 08 65 77 bd 03 72 03 be 35 ac d9 3d 4e 62 0a 3c
       -0.060399085 -0.12836461 0.10628549 0.008446289
000260 09 1b 1e be 2a 18 8e 3c c8 13 f2 3b 88 aa ab bc
       -0.1544 0.017345507 0.007387612 -0.02095534
000270 85 64 d5 3b ce 43 bd bd 50 02 aa 3d 31 2c d4 3d
       0.006512227 -0.09241448 0.08301222 0.10359991
000280 d7 3a c8 3d 74 91 29 bd bc 11 26 3d 66 01 e6 3d
       0.09776848 -0.04139848 0.040544257 0.112307355
000290 4e 84 ca bd ce 95 18 be ca 77 91 3d d4 83 14 bd
       -0.09888516 -0.14900896 0.07102926 -0.036258534
0002a0 e8 65 9f 3d 73 21 ee 3d 96 a5 0e bd a2 1b 07 bd
       0.07783109 0.11627474 -0.034825884 -0.032985337
0002b0 fd 9c 3d 3d 25 2e 19 3e d6 3a 1b bd d3 1b d8 3d
       0.046292294 0.14959009 -0.037897907 0.10552182
0002c0 c0 c6 e3 ba 7d b9 c8 3d ee 1f b0 3d 3b 85 f1 3b
       -0.0017377958 0.09801004 0.0859984 0.0073706186
0002d0 a9 2f bb bd 92 50 04 be 7f cb 1e 3d 79 e7 0c be
       -0.0913995 -0.1292136 0.038768288 -0.13760175
0002e0 2d 9e 76 bd 62 6a af bd 9a 6d bf 3c fc e4 82 3c
       -0.060209442 -0.08565213 0.023367692 0.015978329
0002f0 ea 91 a4 bd 66 2f ea 3d d3 b7 f2 bc af 23 47 bd
       -0.080356434 0.11434822 -0.02962867 -0.048618015
000300 cc fe 11 3e f6 9e c7 bb 14 43 24 3d 2a 51 0c be
       0.14257354 -0.0060919477 0.040103033 -0.13702837
000310 af 98 3f bc 08 00 59 39 38 e1 a5 3c c6 27 dd 3d
       -0.011694117 0.00020694744 0.020248994 0.10798602
000320 59 32 f5 3d 8e ac e5 bc c1 6d 07 be 2f d8 f7 3d
       0.11972494 -0.028036382 -0.13225462 0.121017806
000330 92 93 78 3d 0f 4b e7 bd fc f3 48 3d eb 6e 10 3e
       0.06068761 -0.11293613 0.049060807 0.14104812
000340 b0 31 8a bd fa 1c b5 3c 16 09 42 3e 60 27 3c bd
       -0.067477584 0.022108544 0.18948779 -0.04593599
000350 e0 54 1d bd 85 b1 44 bd 9a 3d 8e bc 50 bb 40 3e
       -0.03841102 -0.04802086 -0.017363358 0.18821454
000360 d7 3c c5 3d 2a 13 05 3e aa 5b b5 3d e3 63 8a 3d
       0.09630745 0.12995592 0.08855374 0.06757333
000370 1e 94 30 bd bf 41 e0 3d 48 df 10 bd 67 34 b0 bc
       -0.043110006 0.1095004 -0.035369188 -0.021509362
000380 9c 76 01 bc 1f b1 36 bd 02 e4 0d 3e 60 c8 38 3e
       -0.007901814 -0.04460251 0.1385651 0.18045187
000390 72 e3 e1 bd 6d ba 10 be 93 d3 4d bc d3 95 9d bd
       -0.1102971 -0.14133616 -0.01256265 -0.07694592
0003a0 23 53 2f 3e 07 1a df 3d 2b 4f 70 bd ec 09 15 bb
       0.17121558 0.10893636 -0.05866925 -0.002274151
0003b0 88 34 7a 3d 84 bc f2 3c 54 f3 e9 3c f8 89 af bc
       0.061085254 0.029630907 0.02855841 -0.021428093
0003c0 e0 01 a1 bd c5 c7 1e 3d 4c 54 ba 3d f2 72 1f be
       -0.07861686 0.038764734 0.090981096 -0.15571192
0003d0 b0 8a cf bd 9a 43 02 3e 4d 37 14 be 02 16 c6 3d
       -0.101338744 0.127211 -0.1447422 0.096721664
0003e0 c4 99 39 bd 77 9c 8d 3d b6 1a 46 3c dd b7 0e bd
       -0.045312658 0.06914609 0.012091329 -0.034843314
0003f0 8d dd fb 3d cb 52 f2 bd ed 46 a1 bd 17 8b 16 be
       0.12298117 -0.11832198 -0.07874856 -0.14701496
