FPGA/U96_Integration/weights_final/weight_4.npy (npy, 6272 bytes, 1 tensors)

array f4 [128, 12]
000000 ee 60 c3 bd 4a 95 3d 3e 13 9d d7 3d dc b3 2d be
       -0.09539972 0.1851398 0.105280064 -0.16963142
000010 8a 8e 86 be f0 df 3c 3e 61 b0 4c 3e 12 37 df 3d
       -0.26280624 0.184448 0.19989158 0.10899176
000020 e0 02 f4 3c f9 3f 25 be 86 83 75 bd 80 51 4d 3e
       0.029786527 -0.16137685 -0.059939884 0.20050621
000030 74 cc 81 3d 81 f5 87 bd 67 81 80 bd 87 90 ad 3d
       0.063378245 -0.06638623 -0.062746815 0.08474832
000040 a7 b4 4c bb b4 05 b8 bd 65 e2 37 3e 34 ea 51 be
       -0.0031235607 -0.08985463 0.17957456 -0.20499498
000050 ea d6 48 be 0c 2d 3c bd ca 0b 0d bd 2d 2c 30 be
       -0.19613233 -0.045941398 -0.03443507 -0.17204352
000060 3d bd 8a 3d 18 c6 a5 bd 13 a5 57 3d 6e 67 de 3c
       0.067743756 -0.08094424 0.05264766 0.027148928
000070 22 67 2e be c4 f9 f9 bd 87 27 4d 3d a6 3d 14 3b
       -0.1703153 -0.12205842 0.050086524 0.0022619753
000080 e2 29 41 3d cf 38 24 be 96 e4 f7 bd c4 7b 23 3e
       0.047159083 -0.16037296 -0.12104146 0.15965182
000090 72 3b c4 3d de 74 a2 3d a7 3f 0b bc 6a b6 1b be
       0.09581651 0.07932447 -0.008499063 -0.15206304
0000a0 ba d8 00 3e 3c 41 50 3e bb 44 31 3e 72 74 e4 3c
       0.12582675 0.20337385 0.17311375 0.027887557
0000b0 ae ec 78 3d 64 47 81 bd e9 ea 3c be 9e 35 15 be
       0.06077259 -0.06312445 -0.18448986 -0.14571235
0000c0 21 0f 3a bb 9e 9f 52 3d 78 04 80 bd b5 8f 3e 3e
       -0.0028390365 0.051421754 -0.06250852 0.18609507
0000d0 91 28 77 bd 94 c8 b2 3d 46 d6 c0 bd 23 20 20 be
       -0.06034142 0.087296635 -0.094158694 -0.15637259
0000e0 0c 29 4f 3e 17 21 bd 3c f1 2f 86 bd 88 76 bb 3d
       0.20230502 0.023087068 -0.06552113 0.091534674
0000f0 71 57 64 be f6 95 3f bc 5d 4b a8 bd 50 1f c2 3b
       -0.22298981 -0.011693468 -0.082174994 0.005924143
000100 8a a8 3b 3e db e0 47 3e 92 c9 63 be 51 88 60 3d
       0.18326011 0.1951937 -0.22244862 0.0548175
000110 3f cd 40 3e f6 a6 2d be 1e b8 e1 bc 00 da 0a be
       0.18828295 -0.16958222 -0.027553614 -0.13559723
000120 b1 31 3e 3e 69 7d 7a be 43 d7 c3 3c f2 d0 39 3e
       0.18573643 -0.24461903 0.023906356 0.18146113
000130 26 e9 e1 bd d3 31 11 be b7 7a 47 3e 70 fe 4f be
       -0.11030798 -0.14179163 0.19480406 -0.20311904
000140 35 ef 37 bd fc e1 ee 3d 78 b8 31 be 18 7d 04 3e
       -0.04490586 0.11664197 -0.17355525 0.12938344
000150 52 bf 15 3e a3 1b 65 be 03 42 d9 bd ab 2f ed bb
       0.14623764 -0.22373824 -0.10608294 -0.0072383485
000160 5b 9f 21 be 5a e4 fb 3d 0d 52 f9 3d 7e 93 30 be
       -0.15783446 0.12299414 0.12173853 -0.17243764
000170 3b 7d 3f 3e 12 27 f4 bd 86 3b c2 3c a1 aa a9 3d
       0.18700115 -0.119215146 0.023710024 0.08284498
000180 35 e6 4e 3e 26 ff ae 3d 01 33 37 bd d6 ce 19 3e
       0.20205005 0.085447595 -0.044726375 0.15020308
000190 44 bd 07 be d8 d6 30 3e 94 c4 8d bc 8f bc 63 be
       -0.13255793 0.17269456 -0.01730565 -0.22239898
0001a0 1d f9 28 3d 0c 42 41 be 52 95 0f be 6d 7a 33 3e
       0.041253198 -0.18872851 -0.14021805 0.1752717
0001b0 0c 70 0e 3e 33 6e b9 bc 9d 8a 07 bd db de dc 3d
       0.1390993 -0.022635555 -0.033091176 0.10784694
0001c0 87 1b 80 bd e1 fc 9d 3d 4a 11 f7 bd 56 11 18 3e
       -0.062552504 0.077142484 -0.120638445 0.14850363
0001d0 76 2a b2 3d 8e 92 3e 3e 4b 8e 63 3e b6 5d 64 bd
       0.08699505 0.18610594 0.22222249 -0.055753432
0001e0 f8 b7 06 3d 9f ba 22 be c0 ba 44 3d 32 ed 23 be
       0.03289029 -0.15891503 0.04802966 -0.16008452
0001f0 b2 5e 5e 3e b6 86 42 bd 4b 53 eb bd 65 76 38 3d
       0.21715811 -0.04749175 -0.11490496 0.045034785
000200 76 37 6c bd a9 0a 7b bd 71 4d 4f bd c0 85 46 bd
       -0.05767008 -0.061289463 -0.050610963 -0.048467398
000210 2d 81 0d 3e 27 26 72 be 72 49 25 be b4 5f 42 bd
       0.13818808 -0.23647366 -0.16141298 -0.04745455
000220 bc 12 27 3e 41 87 53 be 20 68 32 3e 1b 8f 10 3e
       0.1631574 -0.20657064 0.17422533 0.1411709
000230 e6 5e ef bd 4b 56 ef bd 45 03 0e be 3a c2 44 be
       -0.11688022 -0.11686381 -0.13868435 -0.19214717
000240 0e 95 1a 3e 15 b1 48 39 62 fc f8 bd 8c 2c 3c be
       0.15095922 0.00019139455 -0.12157513 -0.18376368
000250 79 3d 42 bd 46 41 88 be 12 b2 ed bd 37 e6 2a be
       -0.047421906 -0.266123 -0.1160623 -0.16689382
000260 64 08 c5 bd 43 66 36 3d 2a b3 95 3d 3d b4 26 3e
       -0.09620741 0.044531118 0.073095635 0.16279693
000270 55 39 d3 3d f5 5c 10 be 25 c7 d2 3d b2 89 78 3e
       0.103136696 -0.1409796 0.1029189 0.24271277
000280 93 29 37 3e 06 4e 17 be 18 e1 36 be be a5 a6 bd
       0.17886953 -0.14775857 -0.17859304 -0.081370816
000290 43 36 25 bd eb eb ea 3b c0 0a 63 bd 4e 90 8b bd
       -0.04033495 0.007169237 -0.055430174 -0.06814633
0002a0 d9 6b 03 be be c0 28 be dc 42 6c bd c8 2f 10 3e
       -0.1283411 -0.16479775 -0.05768095 0.14080727
0002b0 2e 11 41 3e 84 7c 21 3e ef 10 2d bd 0e ae 93 be
       0.1885421 0.15770155 -0.042252477 -0.2884373
0002c0 8e 44 5a bd 4d b8 47 be b7 43 b6 3c d3 9d 83 bd
       -0.053288035 -0.19503899 0.022249086 -0.06426587
0002d0 46 00 a4 3d b8 11 0b 3b c1 c7 fa bd 69 37 5e be
       0.08007865 0.0021220278 -0.12245131 -0.21700825
0002e0 9b 8d b8 3d 7e f1 13 3e bc b7 b2 bd af 5c 98 bd
       0.09011384 0.1444759 -0.08726451 -0.07439553
0002f0 3a b3 38 3e 66 39 f9 3d 3a ad cc 3d a5 7f 9a 3d
       0.1803712 0.12169151 0.09993978 0.075438775
000300 9f e0 f0 bd 5f 45 ed bd 16 cb 5b 3e 3f b4 ac bd
       -0.11761593 -0.11585497 0.2146419 -0.08432817
000310 71 f1 e6 bd 25 5d d2 bd 35 b1 07 be 62 8b 5d be
       -0.1127652 -0.10271672 -0.13251193 -0.21635202
000320 5e 58 d3 3d f6 30 91 3d 76 36 9c bd 89 82 2a be
       0.10319589 0.07089417 -0.07627575 -0.16651358
000330 6d 8f 54 3e 1e b5 56 be d5 ef 03 be 0e b8 19 be
       0.20757838 -0.20967528 -0.12884457 -0.15011618
000340 5b a9 43 be d2 74 a6 3d 33 be 50 3e 25 bb e6 3d
       -0.19107573 0.081277505 0.20385055 0.11266164
000350 61 32 29 bc 2e f6 46 be fa ef 09 be e9 3a 08 3e
       -0.010326953 -0.19429848 -0.1347045 0.13303722
000360 42 cf b2 3d 6f 34 1c be 6c e0 80 bd 9f 11 8f bb
       0.087309375 -0.15254377 -0.06292805 -0.0043661143
000370 27 e8 3a 3c 62 c9 52 be a8 28 2c 3e 10 c8 8b be
       0.0114078885 -0.20584634 0.16812384 -0.27301073
000380 fd 30 96 be 9b b1 3d 3e 69 69 86 bd f8 54 a0 3d
       -0.2933425 0.18524782 -0.06563074 0.078287065
000390 09 ff ca bc 4e ea a5 bd 91 41 13 3e ae 54 d5 bd
       -0.024779813 -0.08101331 0.1438048 -0.10416542
0003a0 70 4d cb bb 10 f8 5f be 60 e6 4b be 96 f9 51 bd
       -0.0062042996 -0.21871972 -0.199121 -0.051263414
0003b0 a5 74 83 3d 0e 18 37 be ec 30 0a be 99 1b df bd
       0.064187326 -0.1788027 -0.13495225 -0.10893936
0003c0 12 53 98 bb 4d d7 fe 3d 99 35 d6 bd e2 a0 78 be
       -0.0046485746 0.12443409 -0.10459442 -0.24280122
0003d0 56 0a 4c be a3 67 a0 bb 5d db cf 3d 95 02 1f be
       -0.19925818 -0.004895167 0.10149262 -0.15528329
0003e0 2a 05 15 3d 10 d4 2c 3e 27 fd c3 3d ac f3 22 3e
       0.036381878 0.1687777 0.09569769 0.15913266
0003f0 7f 82 9c bd 15 db 5f 3d b2 0f c2 3d 40 cc e3 3c
       -0.07642078 0.054652292 0.0947565 0.027807355
