FPGA/U96_Integration/weights_final/weight_0.npy (npy, 51328 bytes, 1 tensors)

array f4 [100, 128]
-0.18933825 0.09814906 -0.07369336 0.04094467 0.022464737 0.040187944 0.1391078 0.12701346
0.07671758 0.04756864 0.21026891 0.059155297 0.106645636 -0.09036079 -0.03217599 -0.07547114
0.16371731 -0.0920628 -0.09507865 -0.1750967 0.05547292 -0.026308365 -0.001020971 -0.09354351
0.089221016 0.0287332 0.14479189 0.16208504 -0.030655105 -0.025350418 -0.13564457 0.10942364
-0.07204631 -0.07631978 0.010045139 -0.020809582 0.06327065 -0.063705504 -0.061123632 0.13257156
0.03916904 0.08700081 -0.14353028 -0.16800138 0.1393894 0.1321232 0.09897643 0.12076884
-0.0515906 -0.15088421 -0.036749788 0.018665086 0.05664772 -0.11652088 -0.17949143 0.09844824
-0.014659171 -0.11486669 0.029061846 -0.11001525 0.17460498 -0.19440946 0.11297531 0.1952993
-0.015662214 -0.14808944 -0.13680841 -0.06848799 -0.19740595 0.11288591 -0.075701684 0.107728206
-0.11949904 -0.038832694 -0.1246201 0.018482786 0.17873804 0.09202644 0.012424044 -0.12325736
0.042605102 0.08380808 -0.17239355 -0.037621044 -0.043815333 -0.10676944 -0.1327152 0.0460749
-0.04985571 -0.058590192 0.07974375 0.14284576 0.17472284 0.13527201 0.10867277 -0.026264388
-0.103559434 0.059026714 -0.012574891 0.20051609 -0.105693944 -0.040401045 -0.012207683 0.07001889
0.1443414 0.09743515 -0.031786587 0.08689741 -0.12147132 0.08857889 0.10365865 -0.24783936
0.114852875 0.15354773 0.10871468 -0.027755074 0.06347114 0.17772354 -0.010537816 0.0008342954
-0.0768883 0.23416139 -0.038298324 0.13169247 0.15085657 -0.0016462201 -0.0013122688 0.028829113
0.03244026 -0.08279426 -0.0031714397 -0.09691671 -0.08710838 0.085565135 -0.039091688 0.09745975
-0.016848614 -0.084538996 -0.05363377 0.066847615 0.07633917 -0.10749781 -0.18914157 0.031480677
-0.084708035 0.11055428 0.02273804 -0.06651795 0.08921634 0.12216168 0.07002894 0.08953041
-0.021798167 0.049409445 -0.06124034 -0.026214192 0.09272729 0.045485884 -0.060067236 -0.04294081
0.1661227 0.058250897 -0.23716483 0.10179812 0.06869836 0.11534726 -0.12487405 0.20598626
0.028479228 0.13442305 -0.08887738 0.15524665 -0.15242116 0.058672756 -0.11514845 -0.13671944
-0.1886719 -0.07893054 0.10930727 -0.067272216 -0.08507472 -0.0020191236 0.06555233 -0.067662716
-0.21714139 0.13893817 -0.15806356 -0.04430986 0.07902532 -0.123284645 -0.15226392 -0.002769971
-0.14631988 0.027667383 -0.15388094 -0.14035136 0.11928891 0.0763647 -0.033806868 -0.14426689
-0.047246147 0.052579734 -0.06953131 -0.11682687 0.06504213 -0.031175846 0.104132995 0.012154289
0.11508912 -0.10196997 0.14724804 0.08971693 -0.15392739 0.06967947 0.15032363 0.09126013
-0.003106286 -0.14041653 0.062825374 0.039298546 -0.08460774 0.056943014 -0.1026312 -0.010427768
0.15374278 -0.07676189 0.079268 0.18840763 0.09269573 0.18081084 0.07670601 -0.008878639
-0.08383026 -0.07762113 0.0710888 0.069471 0.056093175 0.1784776 -0.012280083 0.14454831
0.119567305 -0.051869802 -0.086121745 0.05590701 0.04107514 0.09300444 0.08673837 -0.1862798
0.14437091 0.06856108 -0.092053995 -0.13564777 -0.035882723 0.13920128 -0.16898064 -0.14168575
00000000: e3e1 41be 6002 c93d 8bec 96bd 99b5 273d
00000010: f807 b83c 1d9c 243d 4672 0e3e d10f 023e
00000020: 1b1e 9d3d 56d7 423d bc50 573e d34c 723d
00000030: 0769 da3d 140f b9bd f9ca 03bd 9d90 9abd
00000040: 83a5 273e 6c8b bcbd 98b8 c2bd 8d4c 33be
00000050: 9337 633d a484 d7bc 1ad2 85ba bd93 bfbd
00000060: 82b9 b63d e361 eb3c 5344 143e 9ff9 253e
00000070: 6a20 fbbc aeab cfbc 69e6 0abe 8019 e03d
00000080: 048d 93bd 8b4d 9cbd 5e94 243c db78 aabc
00000090: 0b94 813d 0878 82bd c65c 7abd d7c0 073e
000000a0: b76f 203d 7b2d b23d 9af9 12be 8e08 2cbe
000000b0: 18bc 0e3e 4e4b 073e 28b4 ca3d a755 f73d
000000c0: aa50 53bd 6481 1abe f286 16bd 86e7 983c
000000d0: 7107 683d 80a2 eebd 9acc 37be 3b9f c93d
000000e0: 052d 70bc 3a3f ebbd 1c13 ee3c ad4f e1bd
000000f0: a6cb 323e 4613 47be 995f e73d 8afc 473e
00000100: 0b4e 80bc c2a4 17be 8117 0cbe 6e43 8cbd
00000110: c924 4abe ba30 e73d 7c09 9bbd 9ba0 dc3d
00000120: eabb f4bd 080f 1fbd d338 ffbd 3669 973c
00000130: 1b07 373e 5c78 bc3d 388e 4b3c 5b6e fcbd
00000140: b082 2e3d 92a3 ab3d ef87 30be 8618 1abd
00000150: b577 33bd f0a9 dabd 7ee6 07be 09b9 3c3d
00000160: 8035 4cbd 45fc 6fbd b150 a33d 2946 123e
00000170: 8bea 323e bf84 0a3e d48f de3d 6a28 d7bc
00000180: f816 d4bd ffc5 713d ea06 4ebc 1754 4d3e
00000190: 1176 d8bd 917b 25bd bc02 48bc 1066 8f3d
000001a0: 3bce 133e 148c c73d a732 02bd 45f7 b13d
000001b0: f5c5 f8bd d968 b53d fc4a d43d 9ac9 7dbe
000001c0: fc37 eb3d 9e3b 1d3e cda5 de3d 9c5e e3bc
000001d0: 28fd 813d 29fd 353e cea6 2cbc 9eb4 5a3a
000001e0: 9d77 9dbd 01c8 6f3e b4de 1cbd 64da 063e
000001f0: 257a 1a3e fbc5 d7ba 6f00 acba 082b ec3c
00000200: 14e0 043d 0990 a9bd eed7 4fbb 457c c6bd
00000210: e165 b2bd c63c af3d 9b1e 20bd fa98 c73d
00000220: 1b06 8abc c822 adbd 16af 5bbd 67e7 883d
00000230: b657 9c3d d027 dcbd 54ae 41be e2f1 003d
00000240: 687b adbd 486a e23d 2045 ba3c 903a 88bd
00000250: 0eb7 b63d e72f fa3d 556b 8f3d b85b b73d
00000260: 1292 b2bc 8f61 4a3d 27d7 7abd 25bf d6bc
00000270: cee7 bd3d 684f 3a3d 1009 76bd b4e2 2fbd
00000280: 121c 2a3e 7e98 6e3d 56db 72be 887b d03d
00000290: bab1 8c3d 2f3b ec3d f7bd ffbd 10ee 523e
000002a0: 454d e93c 32a6 093e 5805 b6bd faf8 1e3e
000002b0: 4b14 1cbe d852 703d f3d2 ebbd 2e00 0cbe
000002c0: 3533 41be 56a6 a1bd 7ddc df3d 04c6 89bd
000002d0: a83b aebd 4653 04bb 4d40 863d c092 8abd
000002e0: 505a 5ebe cf45 0e3e 6adb 21be 417e 35bd
000002f0: 07d8 a13d a97c fcbd 13eb 1bbe 6788 35bb
00000300: e1d4 15be b5a6 e23c f792 1dbe 44b8 0fbe
00000310: be4d f43d 1965 9c3d 1279 0abd b3ba 13be
00000320: 2d85 41bd d95d 573d 6e66 8ebd ed42 efbd
00000330: cf34 853d 7d64 ffbc ae43 d53d c822 473c
00000340: d8b3 eb3d a2d5 d0bd 31c8 163e 83bd b73d
00000350: 249f 1dbe 1cb4 8e3d 70ee 193e 97e6 ba3d
00000360: d592 4bbb 5ac9 0fbe 97aa 803d 83f7 203d
00000370: d346 adbd 143d 693d 4e30 d2bd 3bd9 2abc
00000380: bf6e 1d3e 5635 9dbd 4357 a23d eeed 403e
00000390: 42d7 bd3d 7a26 393e 0a18 9d3d b677 11bc
000003a0: 33af abbd d4f7 9ebd 0197 913d d046 8e3d
000003b0: f5c1 653d d5c2 363e 6732 49bc 7904 143e
000003c0: b4df f43d 6e75 54bd 9960 b0bd c0fe 643d
000003d0: 683e 283d 1d79 be3d e3a3 b13d 22c0 3ebe
000003e0: f8d5 133e c069 8c3d ce86 bcbd 40e7 0abe
000003f0: c3f9 12bd c88a 0e3e 4309 2dbe 1216 11be
