FPGA/U96_Integration/weights_pos/weight_3.npy (npy, 512 bytes, 1 tensors)

array f4 [32, 3]
0	0xbec1c3a4	-0.37844574
1	0x3cfaa671	0.030596944
2	0xbe970e73	-0.2950321
3	0xbe9bddc9	-0.30442646
4	0x3d9c43d0	0.07630122
5	0x3ec98859	0.39361838
6	0xbe9370b7	-0.28796932
7	0xbe97075f	-0.2949781
8	0xbeeb9dbb	-0.46018776
9	0xbed368b2	-0.41290814
10	0x3eb387cb	0.3506454
11	0xbb88d7e8	-0.0041761287
12	0xbe5301d1	-0.20606162
13	0x3e57033b	0.20997326
14	0xbeb3d646	-0.35124415
15	0x3e83eb03	0.25765237
16	0x3d8fc6f4	0.07020369
17	0xbecfe095	-0.4060103
18	0xbdc9dde8	-0.098567784
19	0xbeb767cb	-0.35821375
20	0x3e62d7bf	0.22152613
21	0x3e361dd4	0.17784816
22	0xbde98d6d	-0.11403928
23	0xbd3f942e	-0.046772175
24	0xbe98e55e	-0.29862493
25	0x3e98e6e7	0.29863665
26	0x3e7f29f3	0.24918346
27	0x3e8a9b91	0.27071813
28	0x3b1c0d2b	0.002381156
29	0x3ea7fa96	0.3280837
30	0xbec4b7ee	-0.38421577
31	0xbbb0de25	-0.0053975754
32	0xbece1fc4	-0.4025861
33	0x3ee2cba9	0.44296005
34	0xbe47d574	-0.1951502
35	0xbd97f342	-0.074194446
36	0xbed91995	-0.4240233
37	0xbd34f4b9	-0.0441787
38	0xbe99ff59	-0.30077627
39	0x3e018262	0.12647393
40	0x3ea5d2f5	0.3238751
41	0xbe6620ab	-0.224734
42	0xbe876f6d	-0.264522
43	0xbd889759	-0.06669492
44	0x3f05b8fe	0.522354
45	0x3c094a45	0.008379524
46	0x3eeeb072	0.46618992
47	0xbd4d604b	-0.05014066
48	0xbe975979	-0.2956045
49	0x3e710f5b	0.23541014
50	0x3ed0ebdc	0.40804946
51	0x3ed7f15e	0.42176336
52	0xbe1d86ca	-0.15383449
53	0xbe9727c1	-0.29522517
54	0xbee53c4a	-0.4477256
55	0x3f08eb03	0.534836
56	0x3e4808e3	0.1953464
57	0xbeab4aa6	-0.3345539
58	0xbe9fabc3	-0.3118573
59	0xbeac4b16	-0.33651036
60	0x3ed75813	0.42059383
61	0x3e25e4ce	0.16200563
62	0xbdb4bdcf	-0.088252656
63	0x3e98e290	0.29860353
64	0xbebfbcd0	-0.3744874
65	0xbeafc8cc	-0.34332883
66	0x3d879ce1	0.06621719
67	0x3e63a0e2	0.2222934
68	0x3e097ea9	0.13427223
69	0xbedd590b	-0.43231997
70	0x3de93bf0	0.11388385
71	0xbe862969	-0.26203468
72	0xbcce6ddf	-0.025198875
73	0xbec4875c	-0.3838452
74	0xbe93bd1b	-0.28855214
75	0x3f02c4aa	0.51081336
76	0xbe4b48af	-0.19851945
77	0x3d0f0cbd	0.034924258
78	0xbea07e90	-0.3134656
79	0xbd31ce8b	-0.043409865
80	0x3e8c5fdb	0.27416882
81	0xbe875d78	-0.26438498
82	0xbed12bf5	-0.4085385
83	0x3eca5d7a	0.39524442
84	0x3e4a3db9	0.19750108
85	0x3d1bbc3b	0.038021307
86	0xbea14246	-0.31495875
87	0xbe856d16	-0.26059788
88	0x3ed5ed45	0.41782585
89	0x3c9d636a	0.019212443
90	0x3debb9de	0.11510061
91	0xbed69f4f	-0.41918418
92	0x3ee48688	0.4463389
93	0x3ef0f27f	0.4706001
94	0xbe06be46	-0.13158521
95	0xbea5eb51	-0.32406095
