FPGA/U96_Integration/weights_pos/weight_2.npy (npy, 4224 bytes, 1 tensors)

array f4 [32, 32]
0	0x3d5175ec	0.05113785
1	0xbd7e2da1	-0.062055234
2	0x3ec4063c	0.38286006
3	0x3e5b5229	0.2141806
4	0xbe3520ee	-0.17688343
5	0x3d1230d8	0.035691112
6	0x3c823ea3	0.015899008
7	0xbe695d77	-0.2278956
8	0x3e1c7b42	0.15281394
9	0xbe7742ce	-0.24146578
10	0x3e158108	0.14600003
11	0x3e584d94	0.21123344
12	0x3e1156c8	0.1419326
13	0x3e970600	0.29496765
14	0xbd97fed3	-0.07421651
15	0xbd91296a	-0.07087977
16	0xbcb8f855	-0.022579351
17	0xbe8f69cb	-0.280104
18	0x3c888715	0.016665975
19	0xbe32e5b1	-0.17470433
20	0x3ea609b0	0.32429266
21	0x3ea6d88a	0.3258708
22	0xbe8e3f4e	-0.27782673
23	0xbe514fb9	-0.20440568
24	0x3d8e1415	0.06937424
25	0xba0fa294	-0.0005479243
26	0x3daeed3c	0.085413426
27	0xbd73a21e	-0.05948078
28	0x3e9bebf3	0.30453452
29	0xbe000bf3	-0.12504558
30	0xbe440dfa	-0.19145957
31	0xbd7be14d	-0.06149416
32	0x3cd5fd80	0.026121855
33	0x3e3a90bb	0.18219273
34	0xbe3475c0	-0.17623043
35	0x3e7a5d70	0.24449706
36	0x3ee4e941	0.4470921
37	0x3d351c50	0.044216454
38	0xbe4606d6	-0.19338545
39	0xbe36406b	-0.17798011
40	0xbd14a0c1	-0.03628612
41	0xbd35e796	-0.04441031
42	0xbcaea23f	-0.0213176
43	0x3db8fd53	0.09032693
44	0x3d6623b3	0.05618639
45	0xbde85a3d	-0.113453366
46	0xbda78bb6	-0.081809446
47	0x3e54631c	0.20740932
48	0x3ea05ef5	0.31322446
49	0xbde0fdf9	-0.109859414
50	0xbc4b280d	-0.012399686
51	0x3d1644d6	0.03668674
52	0xbdda586b	-0.10661396
53	0xbea87928	-0.32904935
54	0x3d97083b	0.07374617
55	0x3ec3ad60	0.38218212
56	0x3df6f2e9	0.1205805
57	0xbe43f2a9	-0.19135536
58	0xbe2742c2	-0.1633406
59	0xbe8681bc	-0.26270854
60	0xbd960b0d	-0.073263265
61	0x3d653863	0.055961978
62	0xbda88a4b	-0.08229502
63	0xbe5c15c7	-0.21492682
64	0xbe630dc4	-0.2217322
65	0x3cad1fcb	0.021133324
66	0xbe1bf28f	-0.15229248
67	0x3d37ff89	0.04492143
68	0x3eb61135	0.35560003
69	0x3e0a8616	0.13527712
70	0xbe142dcb	-0.14470594
71	0x3dad8a84	0.084736854
72	0x3e3f2558	0.1866659
73	0x3db4158c	0.08793172
74	0xbe8d260a	-0.27568084
75	0x3e80b0bc	0.25134838
76	0x3e90ef91	0.28307775
77	0x3e6762da	0.22596303
78	0xbe446ad2	-0.19181374
79	0x3e4362fc	0.19080728
80	0x3e94736c	0.2899431
81	0x3e802ad6	0.2503268
82	0xbbb97022	-0.005659119
83	0x3ac7dbca	0.0015247997
84	0xbcfd17ec	-0.030895196
85	0xbe51ff64	-0.2050758
86	0x3df74569	0.12073786
87	0x3ead42c3	0.33839998
88	0xbd556b40	-0.052104235
89	0xbea02c16	-0.31283635
90	0xbe02d423	-0.12776236
91	0x3e76a059	0.24084605
92	0xbe3c0076	-0.18359551
93	0x3d2e5c04	0.04256822
94	0x3cfffb41	0.031247737
95	0xbe0f6146	-0.1400195
96	0x3e4fdc23	0.20298819
97	0x3eac935b	0.33706173
98	0xbe414cdc	-0.18876976
99	0x3db9b93c	0.09068534
100	0xbe5618ef	-0.20907949
101	0xbe834334	-0.2563721
102	0x3d1674eb	0.036732595
103	0xbdc22688	-0.094800055
104	0x3e5f27a6	0.21792468
105	0x3ebed093	0.37268505
106	0xbd13e68c	-0.03610854
107	0xbe92ef52	-0.28698212
108	0xbe72de4d	-0.23717614
109	0xbe2c1026	-0.16803035
110	0x3e6b3847	0.22970687
111	0x3dfa73ab	0.12229093
112	0x3ea6a312	0.32546288
113	0xbdf26629	-0.11835892
114	0xbd2814ff	-0.04103565
115	0x3e8106f0	0.25200605
116	0xbe2c20da	-0.16809407
117	0xbe56d96f	-0.20981382
118	0x3e4a1f3e	0.1973848
119	0xbe7dab61	-0.24772407
120	0xbea0db15	-0.31417146
121	0xbe9e359e	-0.30900282
122	0xbe98b6ac	-0.29826868
123	0x3e8dff2d	0.27733746
124	0x3df72a01	0.120685585
125	0x3e21c63f	0.15798281
126	0x3ea9e137	0.33179638
127	0xbe96f819	-0.29486158
128	0x3eb8196e	0.359569
129	0xbe7dd27e	-0.24787328
130	0x3ec6a491	0.3879743
131	0x3e4f670c	0.20254153
132	0x3eae0104	0.3398515
133	0xbdd150e2	-0.10220505
134	0x3ca59d0f	0.020216493
135	0xbdcc2623	-0.099682115
136	0xbd0cb29d	-0.034350026
137	0xbe8269c8	-0.2547133
138	0xbde42e49	-0.11141641
139	0xbe58412f	-0.21118616
140	0xbcb7dbbb	-0.022443643
141	0xbe528392	-0.20558003
142	0xbe7bcde1	-0.24590255
143	0x3ae354bb	0.0017343977
144	0x3c5314e1	0.012883396
145	0xbd6b9377	-0.05751368
146	0xbdf46446	-0.11933188
147	0xbe9bca2c	-0.30427682
148	0xbdb75a77	-0.08952802
149	0x3d8d81a4	0.069094926
150	0xbd81900e	-0.063263044
151	0x3e3aa7f6	0.18228135
152	0xbe817eae	-0.2529196
153	0xbd1f1446	-0.038837694
154	0x3e72fef0	0.23730063
155	0xbe833cc1	-0.2563229
156	0x3d03340f	0.03203207
157	0xbc8a6c61	-0.016897382
158	0x3df10a2b	0.117695175
159	0x3e3fd24a	0.18732563
160	0x3e5a1487	0.21296893
161	0x3ea2181a	0.31659013
162	0x3df27157	0.11838024
163	0x3e8a8b60	0.2705946
164	0xbe00d968	-0.12582934
165	0xbe3858c0	-0.18002605
166	0xbd3f9beb	-0.046779554
167	0x3d109e9d	0.035307515
168	0xbe2a03a4	-0.16602951
169	0x3c8437a1	0.016139807
170	0xbe33ff3b	-0.17577831
171	0xbe89c87a	-0.26910764
172	0x3e951339	0.29116228
173	0xbd0749b2	-0.033029266
174	0xbe037cf9	-0.12840642
175	0x3d75ed40	0.060040712
176	0x3e896d4a	0.26841193
177	0x3e9d302d	0.30700818
178	0x3ea42dd1	0.32066205
179	0x3dcdb72c	0.10044703
180	0xbe23a115	-0.15979417
181	0xbd0bae87	-0.03410199
182	0xbe6e1584	-0.23250395
183	0x3ea0e42c	0.3142408
184	0x3d4f9918	0.05068311
185	0xbe3b82f0	-0.18311667
186	0xbe7bb7a0	-0.24581766
187	0x3de74612	0.11292662
188	0x3e8b3c4d	0.27194443
189	0x3dc10eb2	0.09426631
190	0xbd0e8d67	-0.03480282
191	0xbd1a8be8	-0.03773108
192	0x3e6a6e05	0.22893532
193	0xbe0f369d	-0.13985677
194	0x3ecfb529	0.40567902
195	0xbe98a78c	-0.29815328
196	0x3e1a0e30	0.15044475
197	0xbdc5fe12	-0.09667601
198	0xbe7e7f2f	-0.24853204
199	0xbd842b65	-0.06453589
200	0x3e598f4a	0.21246067
201	0x3e227190	0.15863633
202	0x3e8ea215	0.27858034
203	0x3e7fd5af	0.24983858
204	0x3e27aed5	0.16375287
205	0x3e3269e5	0.17423208
206	0xbe831d58	-0.25608325
207	0xbe0b8d25	-0.13628061
208	0xbe66cf64	-0.2254005
209	0x3e92e4be	0.2869014
210	0xbe234ab0	-0.1594646
211	0xbcd085b6	-0.025454383
212	0x3ea34c00	0.3189392
213	0x3e8fe407	0.2810366
214	0xbdae2730	-0.08503568
215	0x3d29c5b3	0.041448306
216	0xbe9271fe	-0.28602594
217	0xbe00ed18	-0.12590444
218	0xbe8b15e7	-0.27165148
219	0x3e2b1019	0.1670536
220	0x3e6c9546	0.23103818
221	0x3d908eb9	0.07058472
222	0xbbe53761	-0.006995127
223	0x3e52e908	0.20596707
224	0xbe27b532	-0.16377714
225	0xbe79c2da	-0.24390736
226	0xbc352632	-0.01105647
227	0xbe4c8e01	-0.19976045
228	0x39cf788e	0.00039571937
229	0xbe2f4edd	-0.17119928
230	0xbded0909	-0.11573989
231	0xbe39f5e0	-0.181602
232	0x3e01e70f	0.12685798
233	0xbe5afac5	-0.21384723
234	0xbe9a4dbe	-0.30137438
235	0x3e7c26c3	0.24624161
236	0xbe868a4e	-0.26277393
237	0xbe4ba66f	-0.19887708
238	0xbe8d46cd	-0.2759308
239	0x3e54bf0a	0.20776
240	0xbc8c1951	-0.017101916
241	0xbe63ebfc	-0.2225799
242	0xbe07af25	-0.13250406
243	0xbe17e6c6	-0.14834127
244	0x3e7f577c	0.24935716
245	0x3e9c48f5	0.30524412
246	0x3dbc46df	0.09193205
247	0xbe08ffde	-0.13378856
248	0xbe1bd760	-0.15218878
249	0x3d9fc5c2	0.07801391
250	0xbe82869a	-0.25493318
251	0xbe625d5a	-0.22105923
252	0x3ea497c6	0.32147044
253	0x3e13e8d7	0.1444429
254	0x3d949653	0.072552346
255	0x3ec7a199	0.38990477
