FPGA/U96_Integration/weights_pos/weight_0.npy (npy, 12928 bytes, 1 tensors)

array f4 [100, 32]
000000 cb c6 63 be 45 ea 20 3d 4f 13 a5 bd af 70 9d bc
       -0.22243802 0.039285917 -0.080603234 -0.01921877
000010 d9 1a 1f be 24 0f 18 be 7d c9 16 be 3a 81 04 bc
       -0.15537585 -0.14849526 -0.14725299 -0.008087451
000020 b4 84 2e 3e 05 bc 42 3e 92 76 49 bd 93 dd 0e 3d
       0.1704281 0.19017036 -0.049185343 0.03487928
000030 50 7a 13 3e e0 63 a7 bc 29 9d d2 bd 47 36 22 3e
       0.14402127 -0.020433366 -0.10283882 0.15841018
000040 63 a9 21 be a3 6d 97 3c 65 06 a1 3d 61 da a8 3d
       -0.15787272 0.018484896 0.07862548 0.082447775
000050 e3 29 85 be 8d 8f 39 3e 1a 7f 46 be 34 2a 86 3b
       -0.2600852 0.18121167 -0.19384423 0.0040943865
000060 f4 4d 4a bd 4e 30 c4 3d 48 4b 44 3e a0 fd 41 be
       -0.04939075 0.09579526 0.19169343 -0.18944407
000070 5b 55 bc 3d a4 a2 30 3d 8f 79 4e bd 6e 2a 4b be
       0.09195968 0.043123856 -0.050408896 -0.19840404
000080 53 1a 8b bc 59 9a 5c 3b ee eb 4f 3d 18 53 9c 3b
       -0.016980326 0.0033661334 0.05076211 0.0047706477
000090 5f c9 b8 bc ab 4d d7 bd 4b 9a 98 be 3f ab 27 3e
       -0.022556959 -0.10512861 -0.29805216 0.16373919
0000a0 40 91 a4 3d c2 42 26 bd e0 10 79 3e a5 ed 04 be
       0.08035517 -0.04059101 0.24322844 -0.12981279
0000b0 7d 52 0f be d9 a8 6c bd 2b ab 83 3d 85 82 17 3e
       -0.1399631 -0.057778213 0.06429132 0.14795883
0000c0 ba de 4c be 42 d2 fa 3d cc ab 74 bd 09 45 41 3e
       -0.20006838 0.12247135 -0.05973415 0.18873991
0000d0 b5 79 ac ba 36 5d e4 3d ff db c9 bc df 7a 13 3e
       -0.001315883 0.11150591 -0.024641035 0.1440234
0000e0 e3 e0 1e be 64 9d e7 3d 6a ab 2c be 44 fd 09 bd
       -0.15515475 0.11309317 -0.16862264 -0.0336888
0000f0 ab b2 98 3d 03 17 c8 bd 67 57 29 be 9a 22 9e 3d
       0.07455953 -0.09770014 -0.16537248 0.077214435
000100 b2 c4 8f 3c ae 49 eb 3b 20 56 4c 3e a1 05 a3 3d
       0.017549846 0.007180414 0.19954729 0.07960058
000110 d7 b5 03 3d 77 9a 77 be ea 76 20 bd e8 96 3d 3e
       0.032155838 -0.24180017 -0.039175905 0.18514597
000120 e1 05 5c be 7d 63 8b 3e 4c 76 26 bd a4 a4 fa 3d
       -0.21486618 0.2722434 -0.04064016 0.12238434
000130 a8 ec 23 3e ae 4a f4 3d aa 45 26 3e 0a c7 d5 bc
       0.16008246 0.119283065 0.16237512 -0.026095886
000140 6d 97 7e bd 02 70 f6 3d 04 08 28 3e 20 1a 87 bd
       -0.06215613 0.120330825 0.16409308 -0.0659678
000150 25 c0 d3 bd 76 3e 57 bc 7d d1 66 be fc a4 be 3b
       -0.10339383 -0.01313745 -0.22540851 0.0058180075
000160 74 f3 57 3e 38 eb 06 3d c2 0c 0b be ce 9b 0d be
       0.21088964 0.032939166 -0.13579085 -0.13828966
000170 1c a3 03 be 83 6f 0a 3c a1 42 99 bd 56 53 69 3e
       -0.1285519 0.008449438 -0.074834116 0.22785696
000180 4d e3 f2 bc 5b 2d 3d bc 8b d2 c6 bd 26 4f 3d 3e
       -0.029649401 -0.011546458 -0.09708127 0.18487224
000190 a0 da a2 bc 1e 4c 5d bc 3a b7 2d bd 19 01 7d bd
       -0.01987964 -0.013506917 -0.042411067 -0.061768625
0001a0 4a f5 3f bd ff 42 f5 bd 88 b2 54 bd fe 20 df bd
       -0.046864785 -0.11975669 -0.051928073 -0.10894965
0001b0 14 d0 3b 3e 55 7d 67 3d 2c 11 a6 bd 6b 10 ed bc
       0.18341094 0.05651601 -0.08108744 -0.028938493
0001c0 e8 75 b8 3d 71 ae 15 bd 13 63 b2 3d 67 94 52 3c
       0.09006864 -0.036543313 0.08710303 0.012852765
0001d0 37 4a 82 be 84 82 a7 bd 15 19 90 be 29 10 da bd
       -0.25447246 -0.08179191 -0.28144136 -0.106476136
0001e0 2b 8a 61 3d 99 78 2d 3e 82 10 bd ba bd d7 c4 3d
       0.055063408 0.16940536 -0.0014424475 0.09611461
0001f0 3b a7 18 3d 8a 61 13 be 9a e9 c4 bd c2 cf 90 bd
       0.03726886 -0.14392677 -0.096148685 -0.07070877
000200 94 84 b1 bc a1 20 9f 3d 75 4b 9e bc 57 22 cb 3d
       -0.021669663 0.07769895 -0.01932309 0.09918659
000210 bf 2d 0d 3e 9d ea 89 be b0 b7 4b b9 70 35 1b 3d
       0.13786982 -0.26936808 -0.00019428018 0.03789276
000220 63 43 2a 3e 56 3e 1d 3e ea f5 46 bd 3d c7 06 3e
       0.16627268 0.1535581 -0.048574366 0.13161941
000230 13 9b f8 bd 90 fa f5 bd 84 35 83 3e 87 4b 8a 3e
       -0.12138953 -0.12010682 0.25626767 0.27010748
000240 c9 68 40 3a 04 7e d4 bd 85 2d 0a 3e 1a f1 16 3e
       0.0007339833 -0.10375598 0.13493927 0.1474041
000250 62 41 67 be 45 01 8c be da 8a f7 3d de 4d 1f be
       -0.22583535 -0.2734472 0.12087031 -0.15557048
000260 c6 97 43 be 87 29 02 bd f3 05 55 3c 0b 0f 9d 3d
       -0.19100866 -0.031777885 0.013001907 0.07668885
000270 67 63 56 3e e8 b7 b9 bd ba 7f 50 be d2 b4 c7 bd
       0.20936356 -0.090682805 -0.20361224 -0.097512856
000280 9d 36 8b 3e d4 86 8e bd 63 da 84 3e 5d 11 5e bd
       0.27190104 -0.0695931 0.25947866 -0.054215778
000290 c5 23 0d be ac f3 4c be 1c 0b b9 bd fe 5e ab bd
       -0.13783176 -0.20014828 -0.09035322 -0.08367728
0002a0 bc 69 d4 3d 14 51 c6 3c 7b b8 00 3d e8 24 6a bc
       0.1037173 0.024208583 0.031425934 -0.014291026
0002b0 b2 7e 56 3e b5 d9 d7 bd 68 e1 08 3d 23 a6 67 3e
       0.20946768 -0.10539571 0.03341809 0.2262197
0002c0 85 89 42 3d 93 1f 83 3e bf cd 90 bc 2e 41 94 3d
       0.04749443 0.25610027 -0.017676232 0.072389945
0002d0 bd c7 58 be 5c 6f 6f 3b de ca 87 be 20 6e 73 be
       -0.21169944 0.0036534881 -0.26521963 -0.23772478
0002e0 5c 68 a8 3d 41 62 00 be 62 ed 45 3e 76 f0 11 3c
       0.0822303 -0.12537481 0.19328836 0.008907428
0002f0 5d ba 40 3b e0 55 29 be b5 b5 7c 3d c8 fe b9 3d
       0.0029407956 -0.16536665 0.061696727 0.09081799
000300 4d 6c 83 3d fb 6c e1 3d 4e f2 f9 3d a5 a1 66 be
       0.06417141 0.110071145 0.12204419 -0.225226
000310 36 f7 74 3e d6 50 87 be 5c 55 5a bd 3d 3e 51 3d
       0.23922428 -0.2642886 -0.05330406 0.051084746
000320 74 e0 07 3e 4a 3c 0c 3d 39 fb 04 3c b5 9f 22 be
       0.13269216 0.034237184 0.008116537 -0.15881236
000330 6a 99 74 3e 8f ff 24 3e b6 b0 08 be 2f 44 99 3d
       0.23886648 0.16113113 -0.1334866 0.07483708
000340 95 0b 06 3e bf cd 97 3c bd e7 0b 3e bd c9 4a be
       0.13090356 0.018530725 0.1366262 -0.1980352
000350 0e 45 9b bc 70 d7 13 be e2 92 1b 3e 33 f1 e4 39
       -0.018953826 -0.14437652 0.1519275 0.00043667256
000360 9e 86 f8 3d f6 a1 89 bd 52 ff 88 3c a6 5a d8 bc
       0.12135051 -0.06720345 0.016723309 -0.026410412
000370 b5 5b ac 3b 0a 72 00 be af db ae bd 71 8d 47 3d
       0.005259956 -0.12543502 -0.08537995 0.048718873
000380 23 fe 38 bd 98 aa d1 bd 8d 48 3d 3d 65 e8 23 3e
       -0.04516424 -0.10237616 0.046211768 0.1600662
000390 b4 32 08 bd 9c 35 4d 3d 0d e9 77 3e 08 a6 46 3e
       -0.03325148 0.050099954 0.24209996 0.19399273
0003a0 4e 21 2d 3e 03 08 4b 3e 6f 0a 3b 3d 17 a3 57 3c
       0.16907236 0.19827275 0.045664247 0.013161442
0003b0 c5 d6 5d 3e 0d c4 2c bc 85 89 08 bc 1e 63 2a 3e
       0.2166396 -0.010544789 -0.008333568 0.16639373
0003c0 ff 29 40 be 70 39 b4 bc 95 ac 9e 3c 95 67 42 bd
       -0.1876602 -0.022000045 0.019369403 -0.047462065
0003d0 08 ab 46 be ec 79 b5 3d f1 d2 c0 bd 31 c1 1f be
       -0.1940118 0.088611454 -0.09415234 -0.1560104
0003e0 13 f5 7e 3d af 61 23 3e c6 e7 02 be 6c 41 14 be
       0.06224544 0.15955232 -0.12783727 -0.14478081
0003f0 2b 00 03 bc f3 d7 a8 3d bd 81 5d be 9f 39 21 3e
       -0.0079956455 0.08244314 -0.21631522 0.15744637
