FPGA/U96_Integration/weights_pos/weight_1.npy (npy, 4224 bytes, 1 tensors)

array f4 [32, 32]
0	0x3e20325c	0.1564421
1	0x3e15ecd2	0.14641121
2	0x3d7a01df	0.06103694
3	0xbe46b6f9	-0.19405736
4	0xbe5b2056	-0.21399054
5	0x3d951d41	0.0728097
6	0x3dfd2a29	0.12361557
7	0x3df1bbf0	0.11803424
8	0xbe01c670	-0.12673354
9	0xbd85028b	-0.06494626
10	0x3d0fff15	0.035155375
11	0xbe021dd1	-0.12706687
12	0xbe6a9bd1	-0.22911002
13	0x3e8d0b24	0.27547562
14	0xbe218952	-0.1577504
15	0x3d9a261f	0.07526802
16	0xbcf664be	-0.030077334
17	0xbda184d6	-0.078866646
18	0x3db3eb3c	0.08785102
19	0xbdc8a943	-0.09797909
20	0xbdd41b31	-0.10356749
21	0x3de424b5	0.11139814
22	0xbe1648e9	-0.1467625
23	0xbe486d32	-0.19572905
24	0x3e5cef94	0.21575767
25	0xbeb9e573	-0.36307868
26	0x3e81ec64	0.25375664
27	0xbe866391	-0.26247838
28	0x3ec6a37e	0.3879661
29	0x3e9a3117	0.30115578
30	0xbe11a7d6	-0.1422418
31	0x3ceca331	0.02888641
32	0xbdf1a95a	-0.11799879
33	0x3e64208e	0.22278044
34	0xbe2c5db7	-0.16832624
35	0xbd5619b6	-0.052270614
36	0x3b556e0d	0.0032566816
37	0x3e54d6b8	0.20785034
38	0xbe6ea9da	-0.2330698
39	0x3d62453f	0.05524182
40	0x3d75a2b9	0.059969638
41	0x3d7359f2	0.05941195
42	0x3e7f024e	0.24903223
43	0xbdf5fa0f	-0.120105855
44	0x3e499692	0.19686344
45	0xbe8996ea	-0.2687295
46	0xbe3f212f	-0.18665002
47	0xbe8e8cea	-0.27841884
48	0xbe1aa40c	-0.15101641
49	0xbe2bd5a8	-0.16780722
50	0x3e423675	0.18966086
51	0xbe9846a4	-0.29741395
52	0xbe6a5f7c	-0.22887987
53	0x3e2267c1	0.15859891
54	0x3e703aa4	0.2345987
55	0x3deed08b	0.1166087
56	0xbdd4d4bb	-0.103921376
57	0xbc8e4390	-0.0173662
58	0x3e91e053	0.28491458
59	0xbcb93f40	-0.022613168
60	0xbe1cdab7	-0.15317808
61	0x3e93d23f	0.28871343
62	0xbe968a2a	-0.29402286
63	0xbe039b01	-0.12852098
64	0x3daeb5fb	0.08530804
65	0x3e60b338	0.21943367
66	0xbe3c3eb1	-0.1838329
67	0xbe549841	-0.20761205
68	0xbdf3ef72	-0.11910905
69	0xbe631ccb	-0.22178952
70	0x3e1bbe44	0.152093
71	0xbe3c3ea5	-0.18383272
72	0x3e8590f4	0.26087153
73	0xbd4266e4	-0.047461405
74	0xbcfbd2da	-0.03074019
75	0x3e8e5cd3	0.27805194
76	0x3e8a9fc8	0.27075028
77	0xbdb55e05	-0.088558234
78	0xbe903715	-0.28167024
79	0x3db4e41d	0.08832572
80	0xbe14013f	-0.144536
81	0xbe4d96c8	-0.2007705
82	0xbe1f0c15	-0.15531953
83	0x3e03f1f3	0.12885265
84	0xbe0fb760	-0.14034796
85	0x3e8c5cf1	0.2741466
86	0x3e7c5b53	0.24644212
87	0xbd8223e8	-0.06354505
88	0x3e319c8b	0.17344873
89	0x3c17696f	0.009241446
90	0x3eb9b070	0.36267424
91	0xbc5a6c4e	-0.013331486
92	0x3e8dc4a9	0.27689102
93	0x3ea82400	0.32839966
94	0xbd9293a7	-0.07157069
95	0x3dc5b697	0.09653967
96	0xbe6c0143	-0.23047356
97	0xbdd711f7	-0.105014734
98	0x3e5b71a8	0.21430075
99	0xbd3d503b	-0.04621909
100	0xbc199224	-0.009373222
101	0xbe100d29	-0.1406752
102	0xbd1c7b83	-0.038203727
103	0x3e66ba97	0.22532116
104	0xbe8df1fc	-0.27723682
105	0xbcef68dd	-0.029224807
106	0xbe2464ca	-0.16054073
107	0xbd7771f9	-0.060411427
108	0x3e594134	0.2121628
109	0x3e22870a	0.15871826
110	0x3d99313e	0.07480095
111	0xbdebc91a	-0.115129665
112	0x3e9150f6	0.2838208
113	0xbe645a05	-0.22299965
114	0x3e636b65	0.22208937
115	0xbe72a1c4	-0.23694521
116	0x3ea3fb97	0.32027885
117	0x3e9ca992	0.30598122
118	0xbd452305	-0.0481291
119	0xbe8f8da2	-0.28037745
120	0x3e7d7e7d	0.24755283
121	0x3cf4bc6b	0.029875001
122	0xbe31550e	-0.17317602
123	0x3e7c5875	0.24643119
124	0x3e4a395a	0.1974844
125	0x3e99f3a6	0.30068702
126	0xbdd904c0	-0.10596609
127	0x3d18c5ee	0.037298135
128	0x3c82d8b1	0.015972467
129	0x3c84c188	0.016205564
130	0xbe68259f	-0.22670601
131	0xbe58ad3b	-0.21159832
132	0xbd5f20d7	-0.054474678
133	0x3dadb78e	0.08482276
134	0xbd62d766	-0.0553812
135	0xbaad4014	-0.0013217949
136	0xbe99e5a3	-0.3005801
137	0xbe64bd86	-0.22337922
138	0x3e44f1e3	0.19232897
139	0x3e235eab	0.15954082
140	0x3e0e8fd5	0.13922055
141	0x3db28fde	0.08718847
142	0x3d8aaaac	0.06770834
143	0x3d291bf5	0.041286428
144	0x3ec6eb44	0.38851368
145	0x3e5a8288	0.21338856
146	0x3eb64598	0.3559997
147	0x3e4ebbe0	0.20188856
148	0xbdcf1c1d	-0.10112784
149	0x3e311772	0.172941
150	0x3e6ecac8	0.23319542
151	0x3b8808f4	0.004151458
152	0xbd876549	-0.066111155
153	0xbd9203e9	-0.07129652
154	0x3ebf84f4	0.37406123
155	0x3cd65ca6	0.026167225
156	0xbe02909c	-0.12750477
157	0x3e09ea79	0.1346835
158	0x3e6384cd	0.22218628
159	0xbe25834e	-0.1616337
160	0x3e532f0c	0.20623416
161	0xbe5b4b12	-0.21415356
162	0xbe907262	-0.28212267
163	0x3ebabb52	0.3647104
164	0x3d1d82aa	0.03845469
165	0x3dc3c02f	0.095581405
166	0xbd3b3a8b	-0.045710128
167	0x3e9818c2	0.2970639
168	0x3e87a9f8	0.26496863
169	0x3dc74920	0.09730744
170	0x3dc3ed94	0.09566799
171	0x3dc14d34	0.094385535
172	0xbe06dea4	-0.13170868
173	0x3d25a765	0.040442843
174	0x3e46c184	0.19409758
175	0x3dc175ad	0.09446273
176	0xbd98f4a8	-0.074685395
177	0xbe52e831	-0.20596386
178	0x3e961eaf	0.29320285
179	0xbe811bef	-0.25216624
180	0xbcae79fe	-0.021298405
181	0x3e0f2650	0.13979459
182	0x3dedf20f	0.11618435
183	0x3ea3f6ce	0.32024235
184	0xbe7afa0f	-0.24509452
185	0xbd6627df	-0.056190368
186	0x3db4539f	0.08805012
187	0x3e14fbdf	0.14549206
188	0x3e86d001	0.2633057
189	0x3e15e432	0.14637831
190	0x3caa7d6f	0.020811765
191	0xbe3fce7b	-0.1873111
192	0x3ea32567	0.31864473
193	0xbe2c47c1	-0.16824247
194	0x3db1d4fa	0.086832
195	0xbdff4937	-0.124651365
196	0x3e90d0b8	0.2828424
197	0x3daf23cd	0.0855175
198	0xbe4c3b7d	-0.19944568
199	0xbdcab8a9	-0.098985024
200	0xbe2cd4cd	-0.16878052
201	0xbe53c632	-0.20681074
202	0x3e392d75	0.18083747
203	0xbdeadbbd	-0.11467693
204	0xbe892d0c	-0.2679218
205	0xbe9b5a65	-0.30342403
206	0x3d66a89e	0.05631315
207	0xbcc0ec00	-0.023550034
208	0xbca4d5b0	-0.020121425
209	0x3d8a6d74	0.06759158
210	0xbcfcafed	-0.030845607
211	0xbe0db077	-0.13836847
212	0xbe2adc4e	-0.16685602
213	0xbd0a5a35	-0.033777434
214	0xbe20d7d2	-0.15707329
215	0xbe6c7a12	-0.23093441
216	0x3e9acd19	0.30234602
217	0xbe5613e1	-0.2090602
218	0xbe4ee32d	-0.20203848
219	0xbe010f91	-0.12603594
220	0x3eb54aee	0.3540873
221	0xbe183938	-0.14865577
222	0xbe315e07	-0.17321025
223	0xbd98bbcc	-0.074576944
224	0x3eb46d54	0.3523966
225	0x3e076d13	0.13225202
226	0x3b927147	0.00446907
227	0x3a7bf79c	0.0009611787
228	0x3ddf9d6e	0.10918699
229	0xbddb178f	-0.10697853
230	0x3e82d089	0.25549725
231	0x3e2231ef	0.1583936
232	0x3e8f50cc	0.2799133
233	0xbe182fde	-0.1486201
234	0xbe0df82a	-0.13864198
235	0x3e2a681b	0.16641276
236	0xbca22b75	-0.019796113
237	0x3ea0450f	0.31302688
238	0xbd4d2e7b	-0.050093155
239	0xbe64336d	-0.22285242
240	0xbdab1ada	-0.08354731
241	0xbe1641de	-0.14673564
242	0x3e4d7d26	0.20067272
243	0x3d8899af	0.06669938
244	0x3eaa8880	0.33307266
245	0xbd4a72ca	-0.049425878
246	0x3e539ce8	0.20665324
247	0xbe84ac0b	-0.25912508
248	0x3d79ce2a	0.06098763
249	0x3e67f312	0.22651318
250	0x3eae3855	0.34027353
251	0x3e629761	0.22128059
252	0x3c577199	0.013149642
253	0xbda92886	-0.08259682
254	0xbcd46eb5	-0.025931695
255	0xbd27c207	-0.040956523
